tests/resources/model.onnx (onnx, 251023 bytes, 12 tensors)

fc.weight f4 [10, 64]
0	0xbcb6c840	-0.022312284
1	0xbdc969e6	-0.09834652
2	0x3d9c1482	0.07621099
3	0x3dde2d42	0.10848476
4	0xbdf32028	-0.11871368
5	0x3c0d0dd0	0.00860925
6	0x3dc0d5f6	0.0941581
7	0x3c5d65b0	0.013513014
8	0x3dd2c67e	0.10291766
9	0xbdbabf00	-0.091184616
10	0xbdb3392a	-0.087511376
11	0xbcadd170	-0.021218032
12	0x3dacdcd4	0.08440557
13	0xbc883b78	-0.01662992
14	0x3d93e122	0.07220675
15	0x3cb5cb20	0.022191584
16	0xbdba2068	-0.09088212
17	0xbb574e00	-0.0032852888
18	0xbd9b6ba4	-0.0758889
19	0x3d6f8560	0.058476806
20	0x3b93c4a0	0.0045095235
21	0x3dce6faa	0.10079892
22	0x3de6dafa	0.11272235
23	0xbdde32dc	-0.108495444
24	0xbd73ae08	-0.05949214
25	0x3d59bac0	0.053156614
26	0x3ada4f00	0.0016655624
27	0x3d5156a8	0.051108032
28	0xbd4ca654	-0.04996331
29	0xbd1e1104	-0.038590446
30	0x3deda0fc	0.11602971
31	0xbc27e100	-0.010246515
32	0xbd684780	-0.056708813
33	0x3cc96e30	0.024588674
34	0xbd366090	-0.044525683
35	0xbd1f50dc	-0.038895473
36	0x3d0bbf84	0.03411819
37	0xbd17b98c	-0.037042186
38	0x3da74672	0.08167733
39	0xbd1a555c	-0.03767906
40	0xbda7e526	-0.081980035
41	0xbd5acd44	-0.053418413
42	0x3db888ce	0.090104684
43	0x3c6e77b0	0.014554903
44	0xbde95b50	-0.113943696
45	0x3d68ff68	0.0568842
46	0xbd95eafc	-0.0732021
47	0x3c5b2b20	0.013376981
48	0xbde0d140	-0.10977411
49	0x3d6b427c	0.05743645
50	0xbd0826ec	-0.033240244
51	0x3df4e372	0.11957444
52	0xbdc4e4ac	-0.09613928
53	0x3d386bf4	0.045024827
54	0x3d918846	0.0710607
55	0x3debd326	0.11514883
56	0xbcd671f8	-0.026177391
57	0x3dd198c0	0.10234213
58	0x3d7adfa0	0.06124842
59	0x3dd323d0	0.10309565
60	0x3d3c0208	0.045900375
61	0x3da66f20	0.08126664
62	0x3dd8ce5c	0.10586235
63	0x3d568ae8	0.052378565
64	0x3da258f2	0.07927121
65	0x3da7004c	0.081543535
66	0xbcb66e20	-0.022269309
67	0x3d8313c0	0.064002514
68	0xbcaaecb8	-0.02086483
69	0xbdf1ce1c	-0.1180689
70	0x3ce081e8	0.027405694
71	0xbdd5ddea	-0.104427174
72	0x3d60f934	0.05492516
73	0xbd423708	-0.047415763
74	0x3de25764	0.11051825
75	0x3d17b6f8	0.037039727
76	0xbbbe8900	-0.0058146715
77	0x3c897a40	0.016781926
78	0x3da517ce	0.08061181
79	0xbd9a6f68	-0.0754078
80	0x3dbaac94	0.09114948
81	0x3d4f896c	0.050668165
82	0x3df78592	0.120860234
83	0x3c66b040	0.014080107
84	0x3dea363c	0.11436126
85	0x3d2b4d48	0.041821748
86	0x3dbd078e	0.092299566
87	0x3dfd5d76	0.12371342
88	0x3db05132	0.08609237
89	0xbd98826c	-0.07446751
90	0x3d986746	0.07441573
91	0x3d662e2c	0.056196377
92	0xbcfd7710	-0.030940562
93	0x3bb74ce0	0.005593881
94	0xbda28b26	-0.07936697
95	0xbd85e09e	-0.06536983
96	0x3d9b40f6	0.0758075
97	0x3d9337be	0.07188366
98	0xbd90fa72	-0.07079019
99	0x3d8ba81c	0.06819174
100	0x3dcd813e	0.100344166
101	0xbdd57160	-0.10422015
102	0xbcc63ff8	-0.024200425
103	0x3dc3f9f4	0.09569159
104	0xbd738090	-0.05944878
105	0xbdd28f64	-0.10281256
106	0x3d861480	0.06546879
107	0x3dbba42a	0.09162171
108	0x3cfd7050	0.030937344
109	0xbd3e8bf0	-0.046520174
110	0xbd5329ac	-0.051553413
111	0xbb36d140	-0.0027895719
112	0xbd8dccea	-0.0692385
113	0xbd89d830	-0.067306876
114	0xbda8b9a8	-0.08238536
115	0x3d18b1c0	0.03727889
116	0xbd62dd90	-0.05538708
117	0x3d37bfc4	0.044860616
118	0x3d7202b0	0.059084594
119	0xbc8b46d0	-0.01700154
120	0xbdbbf094	-0.09176746
121	0x3df14a7a	0.117817834
122	0x3df3bf5c	0.11901733
123	0xbdb65534	-0.0890297
124	0x3c959890	0.018261224
125	0xbb8b7fa0	-0.0042571574
126	0xbd9e087e	-0.077164635
127	0xbc45d310	-0.012074247
128	0x3dcac332	0.09900512
129	0x3d306d28	0.04307285
130	0x3c60d950	0.013723686
131	0xbdb28c2c	-0.08718142
132	0x3daa39f4	0.08311835
133	0xbd2a31dc	-0.041551456
134	0x3ceea6c0	0.029132247
135	0xbc58c860	-0.013231367
136	0x3de8fe0c	0.113765806
137	0x3d62759c	0.055287942
138	0x3dba1be4	0.09087351
139	0xbda05528	-0.07828742
140	0x3dc2f948	0.09520203
141	0x3ca5d150	0.02024141
142	0xbd81bd76	-0.06334965
143	0xbdaaae84	-0.083340675
144	0xbd4028ec	-0.046914026
145	0x3ca8dfb0	0.020614475
146	0x3d1de108	0.038544685
147	0xbd45e300	-0.048312187
148	0xbcd736d8	-0.026271269
149	0x3dec964e	0.11552106
150	0xbc4cc040	-0.012497008
151	0x3d3defd4	0.046371296
152	0x3d9437f2	0.07237233
153	0xbdce761a	-0.1008112
154	0x3d54d670	0.051962316
155	0xbd4e5f18	-0.050383657
156	0x3d9f73a2	0.07785727
157	0xbce83c68	-0.028349116
158	0x3da5115a	0.0805995
159	0xbd05538c	-0.03255038
160	0x3dae6d7c	0.08516976
161	0xbde8bda0	-0.11364293
162	0xbc216d30	-0.0098526925
163	0xbdae6ee6	-0.08517246
164	0x3d0cd22c	0.034380123
165	0x3cf9e560	0.030504882
166	0x3dbb543c	0.09146926
167	0x3d36f20c	0.044664428
168	0xbd6a99c0	-0.057275534
169	0x3dd1d6c4	0.102460414
170	0x3d61e2bc	0.05514787
171	0x3c8de3e8	0.017320588
172	0xbce15f88	-0.027511373
173	0x3d508b6c	0.050914213
174	0xbd708f7c	-0.058730587
175	0x3d6730bc	0.05644296
176	0x3de8d712	0.113691464
177	0xbd58a4e8	-0.05289164
178	0xba1ae300	-0.00059084594
179	0x3d022d88	0.031781703
180	0xbd62fd4c	-0.055417344
181	0x3d80607a	0.062684014
182	0xbdbc162a	-0.09183915
183	0xbd0e437c	-0.034732327
184	0x3dd57bb4	0.10423985
185	0x3d6dca1c	0.058054075
186	0xbd2a4d78	-0.041577786
187	0x3d22e758	0.039771408
188	0xbb7bc300	-0.003841579
189	0x3de1825a	0.11011191
190	0xbc22d4d0	-0.009938434
191	0x3da2f23a	0.07956357
192	0xbbfe4aa0	-0.007760361
193	0x3d6a1218	0.05714616
194	0xbdcbdeee	-0.0995463
195	0x3d92e46a	0.07172473
196	0xbde8a28a	-0.11359127
197	0x3d7ec600	0.062200546
198	0xbb2d5d80	-0.0026453435
199	0x3dfaadea	0.12240203
200	0x3da0061c	0.07813665
201	0xbd3eb3c4	-0.046558157
202	0xbd89fb46	-0.0673738
203	0x3c916690	0.0177491
204	0x3d05afdc	0.032638416
205	0x3de97834	0.1139988
206	0x3c5607f0	0.013063416
207	0xbbbcf860	-0.0057669133
208	0x3de05312	0.109533444
209	0xbcee8db8	-0.029120311
210	0xbd4f29d0	-0.050576985
211	0x3d87199e	0.06596683
212	0xbdf5ce9c	-0.12002298
213	0xbd8b1398	-0.067908466
214	0x3deae920	0.11470246
215	0x3cff7878	0.031185374
216	0xbd7e40b4	-0.062073424
217	0xbde383ce	-0.11109124
218	0xbdd6b938	-0.104845464
219	0x3dd61f68	0.10455209
220	0x3dcff49a	0.10154076
221	0xbdb96f6c	-0.09054455
222	0xbdd41a04	-0.103565246
223	0xbd8bbb00	-0.06822777
224	0xbdeb5b8e	-0.11492072
225	0xbd7b2c7c	-0.06132172
226	0x3dfad7f2	0.122482195
227	0xbdf874b2	-0.12131633
228	0xbd6e25c4	-0.058141485
229	0x3d04e990	0.032449305
230	0x3d7defbc	0.061996207
231	0xbdc06588	-0.093943655
232	0x3cf21aa8	0.029553726
233	0xbdd94e32	-0.10610618
234	0x3bd0cd00	0.006372094
235	0xbd1fc5d0	-0.039007008
236	0xbcf821f0	-0.03028962
237	0x3c986df8	0.018607125
238	0xbd3dec58	-0.046367973
239	0xbd909066	-0.07058792
240	0x3da270a0	0.07931638
241	0x3d7eb43c	0.062183604
242	0x3dfca6f6	0.12336533
243	0x3d2b1c64	0.041775122
244	0x3d5a2d90	0.053266108
245	0x3ddb60c2	0.107118145
246	0xbdab29a6	-0.08357553
247	0x3dd31d82	0.103083625
248	0xbd68997c	-0.056787
249	0xbc008f40	-0.007846653
250	0xbd05e9e0	-0.032693744
251	0x3c336510	0.010949388
252	0xbddb23cc	-0.10700187
253	0x3bf8d9c0	0.007594317
254	0x3d9bf72e	0.07615505
255	0x3d008a0c	0.03138165

fc.bias f4 [10]
0	0xbd1d5848	-0.03841427
1	0x3de12424	0.109932214
2	0xbcc799e0	-0.024365366
3	0x3c68c1c0	0.01420635
4	0x3cf57b08	0.029965892
5	0x3dda3f28	0.10656577
6	0x3c6d2430	0.01447396
7	0x3dbb7b70	0.09154403
8	0x3dacd85c	0.08439705
9	0x3cd4df58	0.025985405

fc2.weight f4 [1, 10]
0	0x3e051995	0.1299804
1	0x3cab5ff0	0.02091977
2	0x3e8202c1	0.25392726
3	0x3e89a0f5	0.26880613
4	0xbcf8b8c7	-0.030361546
5	0xbe28e4e5	-0.16493566
6	0x3e7dcc95	0.24785073
7	0x3e84a85a	0.25909692
8	0xbe8823f7	-0.2658994
9	0x3dd73130	0.10507429

onnx::LSTM_549 f4 [2, 256]
0	0x3de12153	0.10992684
1	0x3dd3152a	0.10306771
2	0x3d0bd4dc	0.034138545
3	0xbe02d56a	-0.12776724
4	0x3d8d2d99	0.06893463
5	0x3dc2b13a	0.095064595
6	0xbe16a340	-0.14710712
7	0x3d8db1b2	0.06918658
8	0x3deaf456	0.11472385
9	0xbe30a9ed	-0.17252322
10	0xbe0b0101	-0.13574602
11	0xbb7f746a	-0.00389793
12	0xbe049291	-0.12946536
13	0x3dc9316d	0.0982388
14	0xbcd952e5	-0.026528785
15	0xbde76584	-0.112986594
16	0x3e03b453	0.12861757
17	0x3a9f7327	0.0012165055
18	0x3dacf7ab	0.084456764
19	0x3d8534db	0.06504222
20	0xbe0cbf71	-0.13744904
21	0x3c1388c8	0.009004779
22	0x3d5f2a89	0.054483924
23	0x3d97d6a7	0.074139886
24	0xbb12239b	-0.0022299055
25	0x3d2811b9	0.041032527
26	0x3d9b6d46	0.07589202
27	0x3d5204aa	0.05127398
28	0xbe219a6d	-0.15781565
29	0xbd99d5dc	-0.075114936
30	0x3cd6fa13	0.026242292
31	0xbde3d332	-0.11124267
32	0xbd3b0f15	-0.04566868
33	0x3caef583	0.021357303
34	0x3cf57111	0.02996114
35	0xbcc97ee9	-0.024596648
36	0xbd10dfe2	-0.03536976
37	0xbdac0aee	-0.08400522
38	0xbd68b4c0	-0.056813
39	0x3e055f83	0.13024716
40	0xbdc6777a	-0.09690757
41	0xbe146009	-0.1448976
42	0xbe13c8ea	-0.14432111
43	0xbe3231c4	-0.17401797
44	0xbd631a57	-0.05544504
45	0xbdccdd8c	-0.10003194
46	0xbe0110a8	-0.1260401
47	0xbd4cebe0	-0.050029635
48	0x3e1b9eb9	0.15197267
49	0x3c40a255	0.011757453
50	0xbe1414c9	-0.14461054
51	0x3dfe43eb	0.12415298
52	0xbdcae90f	-0.09907734
53	0xbc380b0e	-0.011233104
54	0x3e038b11	0.12846018
55	0xbdf7fb10	-0.12108433
56	0x3e29c8cf	0.16580509
57	0xbd9d9aa7	-0.07695513
58	0x3e1f9933	0.15585785
59	0x3dbd3aa6	0.09239702
60	0xbcc37220	-0.02385813
61	0x3e3388f6	0.17532715
62	0x3de4474e	0.11146413
63	0x3ddd1a76	0.10796063
64	0xbdc31a58	-0.09526509
65	0x3da0c5c2	0.07850219
66	0xbd16e21b	-0.036836725
67	0x3e119b1e	0.14219329
68	0x3e26d8af	0.16293596
69	0x3e285fce	0.16442797
70	0xbc89b4cf	-0.016809849
71	0xbdc57239	-0.09640927
72	0xbe03ecc2	-0.12883285
73	0x3d99cda1	0.07509924
74	0x3cc28ff0	0.023750275
75	0xbd80ad7c	-0.062830895
76	0xbd26fb2b	-0.040766876
77	0x3df126cf	0.1177498
78	0x3d2f4ed4	0.042799786
79	0x3e28dab8	0.16489685
80	0xbd7312b9	-0.059344027
81	0x3b082a3e	0.0020777131
82	0xbe299254	-0.16559726
83	0xbdd40f07	-0.10354429
84	0xbcdfdcc0	-0.027326941
85	0x3e00fb08	0.12595761
86	0xbe221af4	-0.15830594
87	0xbdd1a2eb	-0.10236152
88	0xbd9e18cb	-0.07719573
89	0x3de50466	0.111824796
90	0x3e2bb79d	0.16769262
91	0xb9f72abe	-0.00047143357
92	0x3d6eb33d	0.058276404
93	0xbde493f2	-0.11161031
94	0xbe2cd268	-0.16877139
95	0x3e19c52e	0.15016624
96	0xbe0e7129	-0.13910355
97	0x3e1f3bf7	0.15550219
98	0x3ba1fbbf	0.0049433406
99	0xbe1f1e00	-0.15538788
100	0xbb1c8c56	-0.0023887358
101	0x3cf1fb26	0.029538702
102	0xbdb31265	-0.08743743
103	0xbdbd5e0c	-0.09246454
104	0xbc7bccd3	-0.015368658
105	0xbda96fad	-0.082732536
106	0xbc8eb862	-0.017421905
107	0xbe1ded84	-0.15422636
108	0x3d6202ca	0.05517844
109	0x3e200133	0.15625457
110	0xbd479559	-0.048726413
111	0xbcd2db8f	-0.02573946
112	0xbcef09c5	-0.029179463
113	0xbe0a999e	-0.13535163
114	0xbd81672b	-0.06318506
115	0xba16429c	-0.00057319715
116	0x3de0970d	0.10966311
117	0xbdfd9ddc	-0.12383625
118	0xbcd0fd55	-0.025511423
119	0xbd3a608f	-0.04550224
120	0xbe08142f	-0.1328895
121	0xbdf27dd2	-0.118404046
122	0x3dca8e3a	0.09890409
123	0x3e2f9a53	0.17148714
124	0x3df6930f	0.12039768
125	0xbd80ea24	-0.06294659
126	0xbd3a1abc	-0.045435652
127	0x3daebded	0.08532319
128	0x3d08be9a	0.033384897
129	0xbe0c6d46	-0.1371356
130	0xbd45678d	-0.048194457
131	0xbd446000	-0.047943115
132	0x3de6f03a	0.11276288
133	0xbc6f1674	-0.014592756
134	0x3c61ea9e	0.013788847
135	0xbe267aec	-0.16257828
136	0x3cbbaae9	0.022908645
137	0xbb27438f	-0.0025522446
138	0x3dfd6eb7	0.12374633
139	0x3d5c9225	0.05385031
140	0xbb6f3427	-0.003649959
141	0xbdd4229b	-0.10358163
142	0x3dc9201a	0.09820576
143	0xbda57fba	-0.080810025
144	0xbd45b046	-0.04826381
145	0xbe336f30	-0.17522883
146	0xbc861f29	-0.01637228
147	0xbe25e31f	-0.16199921
148	0x3e144e7b	0.14483063
149	0xbe09b02c	-0.1344611
150	0xbd8cef5f	-0.06881594
151	0xbe268904	-0.16263205
152	0xbe017310	-0.12641549
153	0xbd2ace55	-0.04170068
154	0xbd1d3852	-0.03838379
155	0x3cbc77aa	0.023006279
156	0x3d938c16	0.07204454
157	0xbcde7305	-0.027154455
158	0x3e05da62	0.13071588
159	0x3e0dc6b7	0.13845335
160	0x3e2de441	0.16981603
161	0xbb151bbf	-0.0022752134
162	0xbdc907fb	-0.09815975
163	0xbda295a4	-0.07938698
164	0x3d168c1a	0.036754705
165	0xbdc89ee3	-0.0979593
166	0xbd1b34a4	-0.037892
167	0x3e10af89	0.14129461
168	0xbc7705cc	-0.015077066
169	0x3d74d855	0.059776623
170	0xbe059595	-0.13045342
171	0x3d2abbb5	0.041682918
172	0xbe181d4c	-0.14854926
173	0x3d84ee71	0.064907916
174	0xbd931cb7	-0.07183211
175	0x3ddc9285	0.10770134
176	0xbe060f03	-0.13091664
177	0x3e2a2924	0.16617256
178	0xbd5fc2cf	-0.054629143
179	0xbe08e38c	-0.13368052
180	0xbd5235a7	-0.051320698
181	0x3e11a3db	0.14222662
182	0x3db5cb12	0.08876623
183	0xbb0a9edc	-0.0021151816
184	0x3e22aa0e	0.15885183
185	0x3ded370f	0.11582767
186	0xbdb6aa49	-0.08919198
187	0x3e239232	0.15973738
188	0x3e21162a	0.15731111
189	0xbd3d55ea	-0.046224512
190	0x3da7cc27	0.08193236
191	0x3db39c67	0.08770066
192	0xbdf1a052	-0.11798157
193	0xbe1ae548	-0.15126526
194	0xbe311b2f	-0.17295526
195	0xbd867192	-0.065646306
196	0x3d2a9087	0.04164174
197	0xbd577fc3	-0.052612077
198	0x3d5943bd	0.053043116
199	0xbd86ba56	-0.065785095
200	0xbb249dcc	-0.0025118468
201	0xbd9346b1	-0.07191218
202	0x3e1e33ed	0.15449496
203	0xbe259762	-0.16171029
204	0x3dc30598	0.09522551
205	0xbdbaea80	-0.091267586
206	0xbd1aceb4	-0.037794784
207	0xbd8062e8	-0.06268865
208	0x3db6b356	0.08920924
209	0x3e089b9f	0.13340615
210	0xbe13e8bd	-0.14444251
211	0xbd3caa9e	-0.04606115
212	0xbdbcee15	-0.09225098
213	0xbcbcd61b	-0.023051312
214	0x3e275ad9	0.1634325
215	0xbce197c1	-0.027538182
216	0xbe1923f2	-0.14955118
217	0x3ce4f4b3	0.027948713
218	0xba7ebacd	-0.00097171665
219	0x3a84da6c	0.0010135896
220	0x3dd9b682	0.10630514
221	0xbe16e406	-0.14735422
222	0x3cbb9a4b	0.022900721
223	0x3d23dc50	0.04000503
224	0xbcb933ff	-0.022607801
225	0xbdf700d3	-0.12060704
226	0x3d7eb27e	0.062181942
227	0xbde81f33	-0.11334076
228	0xbc2b395f	-0.01045069
229	0xbd9c7bf9	-0.076408334
230	0xbdc6eacd	-0.097127534
231	0xbe28dff3	-0.1649168
232	0xbe048e67	-0.12944947
233	0x3de097a3	0.109664224
234	0xbd256de8	-0.040388018
235	0x3a88a109	0.0010423969
236	0xbdde4484	-0.10852912
237	0xbd963e96	-0.07336156
238	0x3c49c11d	0.012314108
239	0x3d60aedf	0.05485427
240	0xbdece448	-0.11566979
241	0x3dbf6787	0.09345918
242	0x3e12f331	0.14350583
243	0xbd2f2a59	-0.042764995
244	0x3e13851d	0.14406247
245	0x3dc427c3	0.095778964
246	0x3da4a5fe	0.08039473
247	0x3e0117a4	0.12606674
248	0xbe250234	-0.16114122
249	0x3db09819	0.0862276
250	0x3df26d1d	0.11837218
251	0xbe2a00e3	-0.16601901
252	0x3e1dfb27	0.15427838
253	0xbb1d7554	-0.0024026232
254	0xbde7075f	-0.11280703
255	0x3e055d46	0.13023862

onnx::LSTM_550 f4 [2, 128, 3]
0	0xbde6b644	-0.11265233
1	0xbdfbd7b2	-0.12297
2	0x3e1fe257	0.15613686
3	0xbd8ab0ac	-0.06771979
4	0x3e030914	0.12796432
5	0x3e06ef48	0.13177216
6	0xbc3d62c7	-0.011559195
7	0xbe17279a	-0.147612
8	0x3c395420	0.011311561
9	0x3e15d081	0.14630319
10	0xbdd97c18	-0.10619372
11	0xbb8354a1	-0.0040078913
12	0x3de8c797	0.11366194
13	0x3e26a421	0.16273548
14	0xbdbc5838	-0.09196514
15	0xbe227e5e	-0.15868518
16	0x3db626c1	0.088941105
17	0xbd947f38	-0.072508276
18	0x3ac412ae	0.001495918
19	0xbdf45d2f	-0.11931836
20	0xbdf5abc4	-0.11995652
21	0xbbb94ff8	-0.005655285
22	0xbc933fdd	-0.017974788
23	0xbc1020be	-0.008796869
24	0xbda98ac4	-0.082784206
25	0x3d0a9f04	0.033843055
26	0x3dc1e340	0.094671726
27	0xbcf9984a	-0.030468125
28	0x3dfbccbd	0.1229491
29	0x3d6c55c2	0.057698973
30	0xbd18dc92	-0.037319727
31	0xbd4afae4	-0.049555674
32	0xbdb583e8	-0.0886305
33	0x3e10e4e0	0.14149809
34	0xbd61937d	-0.055072296
35	0x3dc477b3	0.09593143
36	0x3e304233	0.17212753
37	0x3e07a183	0.13245206
38	0x3e1f845b	0.15577833
39	0x3e0d0683	0.13772015
40	0xbe125a23	-0.14292197
41	0xbd374302	-0.044741638
42	0xbb5af0d1	-0.0033407698
43	0x3c9bfedf	0.01904243
44	0xbd980b47	-0.07424026
45	0xbcaadc4d	-0.020857
46	0x3dc48432	0.09595527
47	0x3dd5797a	0.104235604
48	0x3ab41d05	0.0013741559
49	0xbbf45e44	-0.0074575264
50	0xbca4b072	-0.020103667
51	0x3e15111b	0.14557306
52	0xbe0ac6fa	-0.13552466
53	0x3bb53234	0.0055296663
54	0xbde6383c	-0.112411946
55	0xbc891d7d	-0.016737694
56	0xbc8afea1	-0.01696712
57	0x3e1f0068	0.15527499
58	0x3dee0f72	0.1162404
59	0x3e0bedba	0.13664904
60	0x3e2d181a	0.16903725
61	0x3c1a749d	0.009427217
62	0x3e2d7cc0	0.1694212
63	0xbe2dd117	-0.16974293
64	0xbd58d06f	-0.052933153
65	0xbd0796d5	-0.03310283
66	0x3da42c02	0.08016206
67	0x3d43e56d	0.04782622
68	0xbe063121	-0.13104679
69	0x3df04dd9	0.11733598
70	0x3d3c5378	0.04597804
71	0xbcaf9c7a	-0.021436919
72	0xbe1d4a80	-0.1536045
73	0x3ddb24fa	0.10700412
74	0xbdad0b63	-0.084494375
75	0x3d22986a	0.039696135
76	0x3b572c53	0.0032832816
77	0xbe1169e2	-0.14200547
78	0x3adc492e	0.0016806477
79	0x3e1622ed	0.1466176
80	0x3e0b170f	0.13583015
81	0x3d1c8e37	0.038221564
82	0x3dd1c1f7	0.10242074
83	0x3cb58e70	0.022162646
84	0xbe2ab134	-0.1666916
85	0xbcc86fa5	-0.024467299
86	0x3cdc85fd	0.02691936
87	0x3db2e970	0.08735931
88	0xbdce257a	-0.10065742
89	0x3c2096bf	0.009801566
90	0xbd6b3827	-0.057426598
91	0xbde4d07b	-0.11172577
92	0xbd8ee798	-0.06977767
93	0xbca718de	-0.0203976
94	0xbd20880d	-0.039192248
95	0xbd924526	-0.07142095
96	0xbc801bca	-0.01563825
97	0x3ca1357e	0.019678827
98	0xbe124ffd	-0.14288326
99	0x3d4abcee	0.049496584
100	0xbdc3d9ce	-0.09563027
101	0x3e218ff3	0.15777569
102	0xbd6d7779	-0.057975266
103	0xbde7fae7	-0.11327153
104	0xbe259244	-0.16169077
105	0x3c895817	0.016765637
106	0xbe218a6d	-0.15775461
107	0x3cb14080	0.021637201
108	0x3dd545c8	0.104137
109	0x3c8ed7ce	0.017436888
110	0x3cdf5fe7	0.02726741
111	0xbcfa7669	-0.03057404
112	0xbe010e5c	-0.12603134
113	0x3dc6cc11	0.09706891
114	0x3e0f95ea	0.14022031
115	0x3db6df6e	0.089293346
116	0xbe276ee2	-0.16350892
117	0xbe3120a1	-0.17297603
118	0x3e12cc7e	0.1433582
119	0x3dd61a11	0.104541905
120	0x3e072f6a	0.13201681
121	0x3d35be8b	0.04437117
122	0x3dc258b8	0.09489578
123	0x3daca462	0.08429791
124	0xbbaafeaf	-0.005218349
125	0xbe0a5133	-0.13507538
126	0xbe22f948	-0.15915406
127	0x3d747d3f	0.059689756
128	0xbd171cb5	-0.03689261
129	0x3d5194b3	0.0511672
130	0xbe321766	-0.17391738
131	0xbd9097f2	-0.07060231
132	0xbcd3fa83	-0.02587629
133	0x3da63f44	0.08117536
134	0x3dd73e66	0.105099484
135	0x3dd906cb	0.10596999
136	0xbdf0a8f1	-0.11750973
137	0x3de0cbaf	0.109763496
138	0x3d821028	0.06350738
139	0xbdbe107e	-0.092804894
140	0xbc4b82a8	-0.012421288
141	0x3df9ffe7	0.122070126
142	0xbdd8fe74	-0.10595408
143	0x3d344a40	0.044016123
144	0xbcc4d13f	-0.024025558
145	0x3d750152	0.059815712
146	0x3aaf3fce	0.0013370456
147	0xbce21072	-0.027595732
148	0xbdddf303	-0.108373664
149	0xbdd88b72	-0.10573472
150	0x3e201abb	0.15635197
151	0x3e34af25	0.17644937
152	0xbdf8573b	-0.12126013
153	0xbdb9c592	-0.09070887
154	0xbe0f1578	-0.13973033
155	0xbd1e91df	-0.038713332
156	0x3db39f8d	0.08770666
157	0xbe29e4e4	-0.16591221
158	0xbc7d2fe2	-0.015453311
159	0x3d51fa97	0.05126437
160	0x3da81069	0.08206255
161	0xbc2bd10c	-0.010486852
162	0x3dafb975	0.08580295
163	0x3d5efae5	0.05443849
164	0x3e33f304	0.17573172
165	0xbdb03fd8	-0.08605927
166	0x3caed17f	0.02134013
167	0x3ded9af6	0.11601822
168	0xbe1358a3	-0.14389281
169	0x3e3104bd	0.17286964
170	0x3e349be8	0.17637599
171	0x3da382f7	0.07983964
172	0xbc69ab77	-0.014262072
173	0xbe0a4aae	-0.1350505
174	0xbdb506dc	-0.08839199
175	0xbdb41fef	-0.08795153
176	0x3d12ec5b	0.035869937
177	0x3ba4e783	0.005032481
178	0xbdfce92c	-0.123491615
179	0xbe22f38f	-0.15913223
180	0xbe3477fd	-0.17623897
181	0x3dbf2db0	0.09334886
182	0x3d610950	0.05494052
183	0xbdb6cadb	-0.0892541
184	0x3e0ebb79	0.13938703
185	0x3dc1ca5e	0.094624266
186	0xbe15ac92	-0.14616612
187	0x3e060ad9	0.13090076
188	0x3e2b4e8a	0.16729179
189	0xbddcf21c	-0.10788366
190	0xbd361584	-0.044454113
191	0xbdb202e6	-0.08691959
192	0x3db81f46	0.0899034
193	0x3ce1b551	0.027552279
194	0xbe028694	-0.1274665
195	0x3e2b99e0	0.16757917
196	0x3d12a55c	0.03580223
197	0xbc996538	-0.018725023
198	0xbdca279c	-0.09870836
199	0x3c61e20b	0.013786803
200	0xbe02e6a7	-0.127833
201	0x3da0a4e3	0.0784395
202	0xbe0fe22b	-0.1405112
203	0xbd982c31	-0.07430304
204	0xbd1aad18	-0.03776273
205	0xbd941f8a	-0.07232578
206	0x3e2a4566	0.16628036
207	0xbd97b8d0	-0.07408297
208	0x3db8f26f	0.090306155
209	0xbd3c5a46	-0.04598453
210	0x3db2e841	0.08735705
211	0xbca4fecd	-0.02014103
212	0x3d8cdfed	0.06878648
213	0xbdf6f7c6	-0.12058978
214	0x3d16263c	0.036657557
215	0xbddf1189	-0.108920164
216	0x3d3feb0f	0.04685503
217	0xbd21d00f	-0.03950506
218	0xbdb74275	-0.089482225
219	0xbde1c644	-0.11024144
220	0x3d652479	0.055942986
221	0xbd5cb328	-0.053881794
222	0x3d183787	0.03716233
223	0x3e1e23ef	0.15443395
224	0xbd14481f	-0.036201593
225	0xbca2b354	-0.019860901
226	0xbe0778b1	-0.13229634
227	0x3d62e061	0.055389766
228	0x3e34dd60	0.17662573
229	0x3c8cd475	0.017191151
230	0xbd51f636	-0.051260196
231	0xbe1121e4	-0.14173084
232	0xbd439f12	-0.047759123
233	0x3d5af0ff	0.053452488
234	0x3e20e153	0.15710954
235	0xbde3f0a9	-0.11129887
236	0x3dc5a3c1	0.09650374
237	0xbdb67103	-0.08908274
238	0xbd055ebd	-0.032561053
239	0x3dd7d106	0.10537915
240	0x3d9059f1	0.07048405
241	0xbc921314	-0.017831363
242	0xbe212fc7	-0.15740882
243	0xbe3213a2	-0.17390302
244	0xbe02dd7f	-0.12779807
245	0x3ce83da0	0.028349698
246	0xbd63ea30	-0.05564326
247	0x3dba1374	0.09085742
248	0x3e0fe145	0.14050777
249	0x3de67454	0.112526566
250	0x3e223ebc	0.15844244
251	0x3cf98c45	0.030462394
252	0x3e1cc42c	0.15309209
253	0xbe045ade	-0.12925288
254	0x3dfe36c8	0.124127924
255	0xbc127ff9	-0.008941644

onnx::LSTM_551 f4 [2, 128, 32]
0	0xba8c1436	-0.0010687176
1	0xbdc50cee	-0.09621607
2	0x3e2eedeb	0.17082946
3	0x3e29c745	0.16579922
4	0xbdb58684	-0.088635474
5	0x3df77d0b	0.12084397
6	0xbc954e7b	-0.018225899
7	0xbd879114	-0.06619468
8	0xbdd5148c	-0.1040431
9	0xbe158850	-0.1460278
10	0xbda5efba	-0.08102365
11	0x3c8d4adb	0.017247608
12	0xbe347f8e	-0.17626783
13	0xbd8860e1	-0.06659103
14	0xbe2c71fc	-0.16840357
15	0x3cb00a58	0.021489307
16	0x3de4b18f	0.11166679
17	0x3d5b9e0f	0.053617533
18	0xbc8707e3	-0.016483253
19	0xbde6b44c	-0.11264858
20	0xbd232a3c	-0.0398352
21	0xbe0fb1f0	-0.14032722
22	0x3e1a2d12	0.15056255
23	0x3c7f05d8	0.015565358
24	0x3d8e3c35	0.06945077
25	0xbdf1b34d	-0.11801777
26	0xbb0ea6e2	-0.002176695
27	0x3ba1416c	0.004921129
28	0xbd9e7af5	-0.07738296
29	0x3cbb07b4	0.022830822
30	0xbd6782ed	-0.056521345
31	0xbc8a45c4	-0.01687897
32	0xbd879807	-0.06620794
33	0x3e33c8e6	0.17557105
34	0xbe1a14f2	-0.15047053
35	0xbcc46b1d	-0.023976857
36	0x3dcaf0ba	0.09909196
37	0xbe2c235d	-0.16810365
38	0x3e297109	0.16547026
39	0x3d51d83a	0.0512316
40	0x3ca05890	0.01957348
41	0xbe07cef6	-0.13262543
42	0x3d89bac9	0.067250796
43	0xbd302aa1	-0.043009404
44	0x3c38a92e	0.011270804
45	0x3cb77718	0.022395656
46	0xbc8acfea	-0.016944844
47	0xba64be57	-0.00087258726
48	0x3d8483e6	0.0647047
49	0x3cce6a66	0.02519722
50	0x3e33bbe1	0.17552139
51	0x3d88bdad	0.06676803
52	0x3cdec98d	0.027195716
53	0xbcbcdde2	-0.02305502
54	0x3caca605	0.021075258
55	0xbcab7043	-0.020927554
56	0x3d202739	0.039099906
57	0xbde391be	-0.111117825
58	0x3d7086dc	0.058722362
59	0xbe038399	-0.1284317
60	0xbd305eab	-0.043059032
61	0x3e18771f	0.14889191
62	0x3d6ae352	0.057345696
63	0x3c8dd5d8	0.017313883
64	0x3dc26397	0.094916515
65	0xbd7613c4	-0.060077444
66	0x3dce2b5b	0.10066863
67	0xbdd41a96	-0.10356633
68	0x3d531f5a	0.05154357
69	0xbdb7e77d	-0.089797
70	0xbbf17bdf	-0.007369503
71	0xbd8da71c	-0.06916639
72	0x3dac856d	0.084238864
73	0xbda409bc	-0.08009669
74	0xbdc3bd2d	-0.09557567
75	0xbdd925da	-0.10602923
76	0x3de7f334	0.11325684
77	0x3d8c812a	0.068605736
78	0x3e0a4f32	0.13506773
79	0x3e2a0483	0.16603284
80	0xbd5572a0	-0.052111268
81	0x3e204291	0.15650393
82	0xbdad6016	-0.084655926
83	0x3e104a82	0.14090922
84	0x3de977fd	0.11399839
85	0x3df66912	0.12031759
86	0x3e0c27ef	0.13687108
87	0x3db2b21b	0.08725377
88	0xbc7b1cab	-0.015326659
89	0xbd187369	-0.03721944
90	0x3e0d590e	0.13803503
91	0xbd351cdc	-0.044216976
92	0x3b8c893d	0.004288821
93	0xbdec3267	-0.11533051
94	0x3e06761b	0.13130991
95	0xbe2ca41e	-0.1685948
96	0xbd88a271	-0.06671608
97	0x3deea75f	0.11653017
98	0x3dec8cb1	0.11550272
99	0xbd4c63d9	-0.04989991
100	0x3d375ac4	0.044764295
101	0xbe318795	-0.17336877
102	0x3cadd4ed	0.021219695
103	0x3c2ae50d	0.0104305865
104	0xbe2f2085	-0.17102249
105	0x3ddbcb72	0.107321635
106	0x3d766c93	0.06016214
107	0xbdbec654	-0.09315172
108	0xbdfe9ae2	-0.12431885
109	0xbd8c89d6	-0.068622276
110	0xbe32dc01	-0.17466737
111	0x3d07dace	0.033167653
112	0xbdbb81f4	-0.09155646
113	0xbd3e3bec	-0.046443865
114	0xbe220093	-0.15820532
115	0xbcd2a6ec	-0.02571436
116	0xbda9f9cb	-0.08299597
117	0xbc7e0cc4	-0.015505973
118	0xbdf8aa92	-0.12141909
119	0x3c981426	0.018564295
120	0x3c62f658	0.013852678
121	0xbe2cbebc	-0.16869634
122	0x3d455cb3	0.048184108
123	0x3bf5b7b0	0.007498704
124	0x3cd4bbba	0.025968421
125	0xbc76a136	-0.015053084
126	0xbd8acd98	-0.06777495
127	0x3e273d5d	0.16332002
128	0x3d2863dc	0.04111086
129	0x3d1c4cd4	0.038159207
130	0xbe00edab	-0.12590663
131	0xbe090e25	-0.13384302
132	0xbce4899e	-0.027897652
133	0xbd5469ba	-0.05185864
134	0x3d5c4ad6	0.053782307
135	0xbe07e81f	-0.13272141
136	0x3deadf6c	0.114683956
137	0x3d679276	0.05653616
138	0xbb405214	-0.0029345797
139	0xbd458e33	-0.048231315
140	0xbdea89da	-0.11452074
141	0x3d9f3153	0.0777308
142	0xbe10744b	-0.14106862
143	0xbda7f97e	-0.08201884
144	0xbd8bc0d4	-0.068238884
145	0x3c778119	0.015106463
146	0x3d558585	0.052129287
147	0x3d85f5c0	0.06541014
148	0x3e024555	0.1272176
149	0xbd840f32	-0.06448211
150	0xbdfb1c42	-0.12261249
151	0x3d06a057	0.032867756
152	0x3d37bf21	0.04486001
153	0xbe0d3ed0	-0.13793492
154	0xbc94e667	-0.01817627
155	0x3e276d9c	0.16350406
156	0x3e18c9d8	0.14920747
157	0x3d5b19e6	0.053491496
158	0xbdac2402	-0.084053054
159	0xba9c0d69	-0.0011905852
160	0xbc4a3c80	-0.012343526
161	0x3da4580c	0.08024606
162	0xbd9c58eb	-0.07634147
163	0xbe2bd99f	-0.16782235
164	0xbdbfe2af	-0.09369408
165	0x3d81994c	0.06328067
166	0x3da8d039	0.0824284
167	0xbe0717c5	-0.13192661
168	0xbd6a751a	-0.057240583
169	0xbdad51b9	-0.08462853
170	0xbd40b611	-0.047048632
171	0xbe171d2d	-0.14757223
172	0x3dca8251	0.09888137
173	0xbe295318	-0.16535604
174	0x3e3042b4	0.17212945
175	0xbd946ac8	-0.072469294
176	0xbd6b52d8	-0.057452053
177	0x3e19d1d3	0.15021448
178	0x3d87e0cd	0.06634674
179	0xbe22b7ad	-0.15890379
180	0x3c98a9d6	0.018635672
181	0x3d4acf18	0.049513906
182	0xbe3503de	-0.17677256
183	0xbc8534e3	-0.01626057
184	0x3e2e2603	0.17006688
185	0xbde0a3a0	-0.10968709
186	0xbd6d8d75	-0.057996232
187	0x3e18a33c	0.14906019
188	0x3d4ce479	0.050022576
189	0xbdc427c6	-0.09577899
190	0x3db1ae1d	0.086757876
191	0x3e2520ba	0.16125765
192	0xbd63003e	-0.055420153
193	0xbe257a30	-0.16159892
194	0x3e29a997	0.165686
195	0xbd169847	-0.036766317
196	0x3e09cda5	0.13457353
197	0x3de7c5c3	0.11317017
198	0xbd909c74	-0.07061091
199	0xbe00d2e0	-0.12580442
200	0xbe0367dd	-0.1283259
201	0xbd69010d	-0.056885768
202	0xbdfa789e	-0.12230037
203	0xbbf96a81	-0.007611573
204	0xbdddb9ed	-0.10826478
205	0xbc7a990f	-0.015295281
206	0xbd62e396	-0.055392824
207	0x3de46cb7	0.11153548
208	0xbe2340e3	-0.15942721
209	0x3d1e5187	0.03865197
210	0x3c9595c4	0.01825989
211	0x3d93c22e	0.07214771
212	0xbdd2e6e5	-0.10297946
213	0xbd8fc33a	-0.070196584
214	0x3cdc18b3	0.026867246
215	0x3deaec1b	0.11470815
216	0xbe2e4f5c	-0.1702246
217	0x3dcdf0c1	0.10055686
218	0xbdc50461	-0.09619976
219	0x3dd112fd	0.102087
220	0x3d3183b2	0.043338485
221	0xbe2e49ad	-0.17020293
222	0x3d950499	0.072762676
223	0xbe095bb8	-0.13413894
224	0xbdd68e6e	-0.10476385
225	0x3d54fb31	0.051997367
226	0xbdc62b69	-0.096762486
227	0x3c374cd8	0.011187755
228	0x3dcb8458	0.09937352
229	0x3d7c697e	0.061624043
230	0xbdb7c937	-0.089739256
231	0x3cada992	0.021199021
232	0xbd20289d	-0.03910123
233	0x3d899434	0.06717721
234	0x3d744579	0.059636567
235	0xbd87bf6d	-0.066283084
236	0x3e08d2f3	0.1336172
237	0x3e2ffd83	0.17186551
238	0x3c17f602	0.009274961
239	0x3d42c6ce	0.047552876
240	0x3e123f2f	0.14281915
241	0xbe0c3c7f	-0.13694952
242	0xbd4ad520	-0.049519658
243	0xbd7cafd4	-0.06169112
244	0xbc5a01a4	-0.013306055
245	0x3e333ae3	0.17502932
246	0xbdda459f	-0.106578104
247	0xbc75680d	-0.014978421
248	0xbe2b3368	-0.16718829
249	0x3c561ffa	0.013069147
250	0xbc36bbcc	-0.011153173
251	0xbddfbe28	-0.10924941
252	0xbbb0ebf5	-0.005399222
253	0xbd9a4184	-0.07532027
254	0xbdcd91bc	-0.10037562
255	0xbd2e927f	-0.04262018

onnx::LSTM_596 f4 [2, 256]
0	0x3dc2f245	0.095188655
1	0x3cdf2ca3	0.027242964
2	0xbb62f6f7	-0.0034632066
3	0xbe1fe13b	-0.15613262
4	0x3e044afd	0.12919231
5	0x3e1fdf56	0.1561254
6	0x3e0d441a	0.1379551
7	0xbd9be729	-0.0761245
8	0x3da5106a	0.08059771
9	0xbd1f4dbe	-0.0388925
10	0xbe12ff18	-0.14355123
11	0x3b912b3c	0.004430203
12	0xbdbc9c2e	-0.092094764
13	0xbe229e9d	-0.15880819
14	0xbd0f8090	-0.035034716
15	0xbdb88664	-0.09010008
16	0xbe224980	-0.1584835
17	0xbbee9bc6	-0.0072817532
18	0x3e2e5400	0.17024231
19	0xbe080fc2	-0.13287261
20	0x3d9d811e	0.07690643
21	0xbe312e3a	-0.1730279
22	0x3d5c1c1a	0.053737737
23	0x3e22d9d4	0.15903407
24	0x3d5efa5d	0.054437984
25	0xbe10da8f	-0.14145873
26	0x3cbf75db	0.023371628
27	0xbca8de2a	-0.020613749
28	0xbcb1702f	-0.021659939
29	0xbe172d4d	-0.14763375
30	0x3e3162d5	0.17322858
31	0x3dd72a6a	0.10506137
32	0x3d786119	0.060639475
33	0xbdd1fed2	-0.10253681
34	0x3d032ed8	0.032027096
35	0xbc487df7	-0.012237064
36	0xbca84601	-0.020541193
37	0xbd1e40fa	-0.038636185
38	0x3e1eaced	0.15495653
39	0x3c7d1a0d	0.0154481055
40	0x3dfef5ab	0.12449201
41	0xbdc38bc2	-0.09548141
42	0xbe21a6d9	-0.15786304
43	0x3df04f32	0.11733855
44	0xbd22ae9a	-0.039717294
45	0xbd09b52f	-0.033620056
46	0x3e171539	0.1475419
47	0x3d32b2a0	0.04362738
48	0xbe01b7b2	-0.1266773
49	0x3c963905	0.018337736
50	0x3e0c04d7	0.13673721
51	0xbc5d84d0	-0.0135204345
52	0x3df09842	0.11747791
53	0x3e00819e	0.12549445
54	0x3df4d79a	0.11955185
55	0xbdec5c5a	-0.11541052
56	0x3df16eca	0.117887095
57	0x3dbd6a6c	0.09248814
58	0xbc62df19	-0.013847136
59	0xbe136658	-0.1439451
60	0x3e2dec45	0.16984661
61	0xbdd336e0	-0.10313201
62	0xbe1049cf	-0.14090656
63	0xbdbc708f	-0.09201156
64	0x3d09137a	0.03346584
65	0xbd564021	-0.05230725
66	0x3d944597	0.07239836
67	0x3ce55352	0.027993832
68	0x3e101cc7	0.14073478
69	0x3c8be361	0.017076196
70	0xbddf9585	-0.109171905
71	0xbde03d31	-0.10949171
72	0xbc7def6b	-0.015498976
73	0x3e01a80b	0.1266176
74	0x3e31d87d	0.1736774
75	0xbe05a9a6	-0.13052997
76	0xbbb9436b	-0.005653789
77	0xbe118f0c	-0.14214724
78	0xbe15d343	-0.14631371
79	0x3db03dd5	0.086055435
80	0xbd41be26	-0.04730048
81	0x3dbede92	0.09319796
82	0xbc553e69	-0.013015368
83	0xbd3c7a23	-0.046014916
84	0x3e1fc1e2	0.15601304
85	0xbd2d06e4	-0.0422429
86	0x3defd064	0.11709669
87	0x3da90cf2	0.08254422
88	0x3e15a9f5	0.14615615
89	0x3c7c057b	0.015382166
90	0x3ddf9177	0.10916417
91	0xb864bfc1	-5.453802e-05
92	0xbe202b6c	-0.15641564
93	0xbde9f15e	-0.1142299
94	0xbc561274	-0.013065923
95	0x3e321f1a	0.17394677
96	0xbdbe1d3b	-0.09282919
97	0xbde936b7	-0.11387389
98	0xbdf12471	-0.11774529
99	0x3e2e9e67	0.17052613
100	0xbd4db715	-0.05022343
101	0xbe287f66	-0.16454849
102	0x3ac64420	0.0015126504
103	0x3d9155f5	0.07096473
104	0x3d809db5	0.0628008
105	0x3db858a3	0.09001281
106	0xbd1b6f76	-0.037948094
107	0xbda5241d	-0.08063529
108	0x3e1467fb	0.1449279
109	0x3e31992a	0.17343584
110	0xbe271099	-0.16314925
111	0x3cfeaea6	0.031089138
112	0x3e14a277	0.145151
113	0x3d7862e3	0.06064118
114	0x3e0005a7	0.12502156
115	0xbe03a405	-0.12855537
116	0x3ddc78b3	0.10765209
117	0xbdb6eb5f	-0.08931612
118	0x3d47576e	0.048667364
119	0x3e16ea05	0.14737709
120	0xbd96dc32	-0.07366218
121	0x3d0d32a8	0.034472138
122	0x3cbe188c	0.023205064
123	0xbda45a8e	-0.080250844
124	0x3dbd5a42	0.09245731
125	0x3df527c8	0.11970478
126	0x3d94392c	0.07237467
127	0x3c93db84	0.01804901
128	0xbe2abd9a	-0.1667389
129	0xbe28ab00	-0.16471481
130	0xbd946e62	-0.07247616
131	0x3d3ff7ad	0.04686706
132	0xbcb5f01b	-0.022209218
133	0x3ce40c48	0.027837887
134	0x3dab65cc	0.083690256
135	0xbe0d80d5	-0.13818677
136	0x3c13d9ec	0.009024125
137	0x3e331a13	0.17490415
138	0x3cc1d9dc	0.023663454
139	0xbcf2155b	-0.029551199
140	0xbd85feb9	-0.06542725
141	0xbd9e0fbe	-0.07717846
142	0xbe30e35f	-0.17274235
143	0x3db8695b	0.0900447
144	0xbb9fdefc	-0.0048788767
145	0xbce49379	-0.027902352
146	0xbcb56b6f	-0.022145955
147	0xbd6f22be	-0.058382742
148	0xbe1d06c0	-0.15334606
149	0xbe192485	-0.14955337
150	0x3d8ff802	0.070297256
151	0xbe1071e5	-0.14105947
152	0x3d0f51df	0.034990188
153	0xbde2829c	-0.11060068
154	0xbe169a5e	-0.14707324
155	0x3e20b9b1	0.15695836
156	0xbcde5aab	-0.027142843
157	0xbcc72206	-0.024308216
158	0xbde750b6	-0.11294691
159	0x3df5e4a2	0.12006499
160	0x3cc48a7e	0.02399182
161	0x3d25a7a0	0.040443063
162	0xbe2b4f71	-0.16729523
163	0xbd187993	-0.037225317
164	0xbddb0033	-0.106933974
165	0x3e2996f5	0.16561492
166	0xbdf64eb6	-0.12026732
167	0xbd4b5123	-0.049637925
168	0x3da975da	0.082744315
169	0xbe18d3a3	-0.14924483
170	0x3e0bd168	0.13654101
171	0x3ddbdbfa	0.107353166
172	0x3da37894	0.07981983
173	0x3d4aeef5	0.049544293
174	0xbd118e7e	-0.03553628
175	0xbe244e81	-0.16045572
176	0xbd910586	-0.07081132
177	0x3df5a044	0.11993459
178	0x3e0e7567	0.13911973
179	0xbe32bbb0	-0.1745441
180	0xbbeb3aa0	-0.0071786195
181	0xbd54896f	-0.05188888
182	0xbdfe3a2f	-0.124134414
183	0xbdeb53aa	-0.11490567
184	0x3d158624	0.03650488
185	0xbd916915	-0.07100121
186	0x3d2fc7d5	0.042915184
187	0x3d41e38f	0.047336157
188	0x3e1a088b	0.15042321
189	0x3e033e57	0.1281675
190	0x3c9b9c30	0.018995374
191	0x3dac0157	0.08398693
192	0x3c8ef51b	0.01745086
193	0x3e34665f	0.17617176
194	0xbe251a56	-0.16123328
195	0xbe0e3c7e	-0.13890263
196	0x3b82eefb	0.003995774
197	0x3dcf3f26	0.101194665
198	0x3e0563c8	0.13026345
199	0x3e17118e	0.1475279
200	0x3c4323f2	0.0119104255
201	0xbd6863d5	-0.056735832
202	0x3e048e86	0.12944993
203	0xbd8767e3	-0.06611612
204	0x3a965ee4	0.0011472371
205	0x3e033488	0.12813008
206	0xbcca31a1	-0.024681868
207	0x3da4b46c	0.08042225
208	0xbe1e737c	-0.15473741
209	0xbcece678	-0.02891849
210	0x3de7de7a	0.11321731
211	0xbe0cb2eb	-0.13740127
212	0x3ddeeaf9	0.10884661
213	0x3b1834c4	0.002322481
214	0x3dcb5079	0.09927458
215	0xbde2ad01	-0.11068154
216	0xbc68dd6f	-0.01421295
217	0x3c37c9bc	0.011217531
218	0x3c46bad4	0.012129504
219	0x3d86ab47	0.06575637
220	0x3e26406b	0.16235511
221	0xbd4e27d2	-0.050330944
222	0xbd9f6018	-0.07782
223	0x3bee16d6	0.007265906
224	0xbe0d696e	-0.1380975
225	0x3d90ed84	0.070765525
226	0xbbda8b2c	-0.0066694226
227	0xbe10a7c2	-0.14126495
228	0xbdc50d46	-0.09621672
229	0xbdc8a0f4	-0.09796324
230	0x3da4bf4e	0.08044301
231	0x3cbda9aa	0.023152191
232	0xbd87d698	-0.066327274
233	0x3c1405da	0.009034598
234	0x3ddc5254	0.1075789
235	0x3cab3981	0.020901443
236	0xbdbe467a	-0.09290786
237	0xbe017a1e	-0.1264424
238	0xbc8f86a3	-0.017520254
239	0xbe2bb9c6	-0.16770086
240	0x3cfae556	0.030626934
241	0x3e2793d9	0.16364993
242	0x3dd222c8	0.1026054
243	0x3bae4e81	0.005319417
244	0xbe0086f0	-0.12551475
245	0x3da2fbc6	0.07958178
246	0x3e23e906	0.1600686
247	0x3e184373	0.1486948
248	0x3d9c6920	0.076372385
249	0xbd2ce10a	-0.0422068
250	0xbe0f496e	-0.13992855
251	0xbe33d5f6	-0.17562088
252	0x3d482bfc	0.04887007
253	0x3e267e83	0.16259198
254	0x3c10b2ac	0.008831661
255	0xbdc0e0f2	-0.09417905

onnx::LSTM_597 f4 [2, 128, 64]
0	0x3e2d4411	0.16920497
1	0xbb11e726	-0.002226302
2	0x3dbebc68	0.093132794
3	0x3e138c5e	0.14409015
4	0xbe023ee3	-0.12719302
5	0xbdcde5dc	-0.10053608
6	0x3c852007	0.016250623
7	0xbdf4c398	-0.11951369
8	0xbd2a13f7	-0.041522946
9	0xbdeb7472	-0.114968196
10	0x3b2e0bdc	0.0026557362
11	0xbb14bf1d	-0.002269692
12	0xbda16464	-0.07880476
13	0xbe1d833a	-0.1538209
14	0xbe033bc2	-0.12815765
15	0xbddad0f1	-0.10684384
16	0x3de34891	0.11097825
17	0x3d4fc73f	0.050727125
18	0x3d539056	0.05165132
19	0x3e00c08e	0.12573454
20	0x3e0d0500	0.13771439
21	0xbe251f81	-0.16125299
22	0x3e1cb347	0.15302764
23	0xbc9706b3	-0.018435812
24	0x3de130b4	0.109956175
25	0x3d074f48	0.033034593
26	0x3d9f6201	0.07782365
27	0x3d8ec180	0.06970501
28	0xbd56d8aa	-0.05245272
29	0xbdbd8304	-0.09253505
30	0x3de5e8d7	0.11226051
31	0xbe181e26	-0.1485525
32	0x3ded4273	0.1158494
33	0xbcecd5cf	-0.028910546
34	0x3d995336	0.07486574
35	0xbc9f94df	-0.019480167
36	0x3d14dd85	0.03634407
37	0xbdeb471d	-0.11488173
38	0xbe075acc	-0.1321823
39	0x3e04ac8e	0.1295645
40	0xbd0eb4d9	-0.03484044
41	0xbca79b5f	-0.020459829
42	0xbc522865	-0.012827014
43	0xbd3fcc64	-0.04682578
44	0x3dc4652b	0.09589609
45	0x3d918509	0.071054526
46	0xbb9b279a	-0.0047349455
47	0x3dc32b3a	0.09529729
48	0x3d79a60e	0.060949378
49	0x3d446718	0.04794988
50	0x3cb77d8b	0.02239873
51	0x3e1c860e	0.15285513
52	0x3cb9c499	0.022676753
53	0x3d5546b8	0.052069396
54	0xbe323d53	-0.17406206
55	0xbe180cee	-0.14848682
56	0xbcd7c679	-0.026339756
57	0x3bfa6f13	0.0076426356
58	0xbe04ae55	-0.12957127
59	0xbe2ef533	-0.17085724
60	0xbcb5a883	-0.02217508
61	0x3d6d9a90	0.05800873
62	0x3e059135	0.13043673
63	0xbdddbf1e	-0.10827468
64	0xbd9f6588	-0.077830374
65	0xbd7d9cee	-0.061917238
66	0xbe0c3afe	-0.13694379
67	0xbdc7b3b8	-0.097510755
68	0x3e1f8dff	0.15581511
69	0xbdacf800	-0.0844574
70	0xbdc64828	-0.096817315
71	0x3df3cb44	0.11904004
72	0x3d848ad1	0.0647179
73	0x3d78e59d	0.06076585
74	0xbd6a82c2	-0.057253607
75	0x3e105e51	0.14098479
76	0x3dd5ff3b	0.10449072
77	0xbd7c5e9f	-0.061613675
78	0x3d43a30c	0.047762915
79	0xbd0d3eec	-0.034483835
80	0xbbd0cb16	-0.006371866
81	0xbdb47dac	-0.088130325
82	0x3e2977ce	0.16549608
83	0xbe091643	-0.13387398
84	0xbd83df3e	-0.064390644
85	0xbdb803ee	-0.089851245
86	0xbd94d1aa	-0.07266553
87	0xbd231e8b	-0.03982405
88	0x3d72619d	0.059175123
89	0x3df80926	0.1211112
90	0x3dee43af	0.11634003
91	0xbe208dd4	-0.15679103
92	0xbd0e7486	-0.034779094
93	0xbcc4dc35	-0.024030784
94	0x3dc8afaf	0.09799134
95	0xba47f20b	-0.0007627315
96	0x3dd78fed	0.105254985
97	0x3cd96268	0.026536182
98	0x3db31cb7	0.08745711
99	0xbe0d97f0	-0.13827491
100	0xbdfce6aa	-0.12348683
101	0xbdc41f88	-0.095763266
102	0xbe116287	-0.14197741
103	0xbcc199b0	-0.023632854
104	0x3c7128e0	0.014719218
105	0xbe00e94f	-0.12589
106	0x3d403302	0.046923645
107	0x3dd8716e	0.1056851
108	0x3d2a00da	0.04150472
109	0xbc2bf95a	-0.010496462
110	0x3c94b668	0.018153384
111	0x3ce5ad4c	0.028036736
112	0xbd94b3ec	-0.0726088
113	0x3d6f4d80	0.05842352
114	0x3e114142	0.1418505
115	0xbe10e81c	-0.14151043
116	0x3db48af6	0.08815567
117	0xbdfea933	-0.12434616
118	0x3cb9ad00	0.0226655
119	0x3def5da7	0.11687785
120	0x3c14a6cf	0.009072973
121	0x3dbef4e9	0.09324057
122	0xbd4fd17a	-0.05073688
123	0x3cbd4e23	0.023108548
124	0x3e2a3f22	0.16625646
125	0xbb301aa7	-0.0026871355
126	0xbd8f67d8	-0.070022285
127	0x3d7c5edd	0.061613906
128	0xbe25dc9e	-0.1619744
129	0xbd9e8569	-0.0774029
130	0xbda62d44	-0.081141025
131	0x3d766258	0.06015238
132	0xbd9080c1	-0.07055808
133	0x3e1aeb84	0.15128905
134	0xbe2c2ca8	-0.1681391
135	0x3df1c166	0.11804466
136	0x3e0aa0c6	0.13537893
137	0x3dbe621c	0.09296057
138	0xbdc35a0d	-0.0953866
139	0x3df0d810	0.11759961
140	0x3e1a1c36	0.15049824
141	0x3e036131	0.12830044
142	0x3d4999f5	0.04921909
143	0xbdc0e5aa	-0.09418805
144	0x3dd60da0	0.104518175
145	0x3d5d08f6	0.053963624
146	0xbdd7d73f	-0.10539102
147	0x3d9b483a	0.075821355
148	0x3d55afe1	0.052169684
149	0x3d23e87d	0.04001664
150	0xbde147af	-0.11000001
151	0x3d633de5	0.05547895
152	0xbd9c7b9f	-0.07640766
153	0xbdb3e594	-0.08784023
154	0xbd1eb929	-0.0387508
155	0x3defb56c	0.11704525
156	0x3e291ad8	0.16514146
157	0xbe1e1a65	-0.15439756
158	0x3de0ee99	0.10983009
159	0xbe233842	-0.1593943
160	0xbdd8f4a4	-0.105935365
161	0x3dcd0b88	0.10011965
162	0xbe079d09	-0.13243498
163	0x3dca52c4	0.098790675
164	0x3dc6f14a	0.09713991
165	0xbd813836	-0.063095495
166	0xbe0dd802	-0.13851932
167	0x3ba8c5d1	0.0051505347
168	0x3df17f57	0.11791866
169	0x3deadc6d	0.11467824
170	0x3e23a6a7	0.15981542
171	0x3e19deb5	0.15026362
172	0xbcf4d937	-0.029888732
173	0x3db27bb1	0.087149985
174	0xbe2b328e	-0.16718504
175	0xbd60f67d	-0.05492257
176	0x3d8672ff	0.065649025
177	0x3d951153	0.07278695
178	0x3c3ee169	0.011650422
179	0xbe231713	-0.15926771
180	0xbe1dd1d7	-0.15412079
181	0x3cd71f60	0.026260078
182	0xbcc7f55c	-0.024408989
183	0xbd314d57	-0.043286648
184	0xbe0cea01	-0.1376114
185	0x3c9bc2f2	0.019013856
186	0x3d8f964b	0.07011088
187	0xbddfa335	-0.10919801
188	0x3e15d311	0.14631297
189	0xbb8dcd73	-0.00432747
190	0x3e254bdb	0.16142218
191	0xbe0d375f	-0.13790654
192	0xbdff131d	-0.124548174
193	0x3e28df8d	0.16491528
194	0xbd894b29	-0.06703789
195	0xbe11cb7b	-0.14237778
196	0xbe159d03	-0.14610676
197	0xbd7832b7	-0.06059524
198	0x3bc9f2e0	0.006162986
199	0xbd50e288	-0.050997287
200	0xbdc56f92	-0.09640421
201	0xbd8d5ed7	-0.06902855
202	0x3dbba467	0.09162217
203	0xbdf699d4	-0.12041059
204	0xbd9cb724	-0.07652119
205	0x3e1a9615	0.15096314
206	0x3db29688	0.08720118
207	0xbc9ed3ec	-0.019388162
208	0xbd7e91e6	-0.06215086
209	0xbdbac5c1	-0.0911975
210	0x3e0aed9d	0.13567205
211	0xbdceb01a	-0.100921825
212	0x3de8b79a	0.11363144
213	0x3dcff4d8	0.10154122
214	0xbe099bdf	-0.13438366
215	0xbce647ef	-0.028110472
216	0x3e343614	0.17598754
217	0x3d9cff71	0.07665909
218	0xbdeb9a73	-0.11504068
219	0xbe10f31a	-0.14155236
220	0x3e001dc3	0.12511353
221	0xbbce0a47	-0.0062878462
222	0xbe1c24c5	-0.15248401
223	0xbc258e64	-0.010104749
224	0xbdc79a57	-0.09746235
225	0xbcd9abdc	-0.026571207
226	0xbc4c9355	-0.012486299
227	0x3c470585	0.012147312
228	0x3d553768	0.052054793
229	0x3e2d578a	0.16927925
230	0x3dc73b7d	0.09728143
231	0x3d9bc4bc	0.076058835
232	0x3e0e3936	0.13889012
233	0xbe26eed1	-0.16302039
234	0x3e16e50f	0.14735816
235	0xbddf0134	-0.10888901
236	0xbe2735a9	-0.16329063
237	0xbdd2edbf	-0.10299253
238	0xbe24706e	-0.16058514
239	0xbe2dc2b2	-0.16968802
240	0xbd8718e1	-0.06596542
241	0x3d52ecd7	0.0514954
242	0xbdf94225	-0.12170819
243	0x3e060d46	0.13091001
244	0x3def2e7c	0.11678788
245	0xbddea30c	-0.108709425
246	0x3ddc33f7	0.10752099
247	0xbcbf2a76	-0.023335677
248	0x3e0c8557	0.1372274
249	0x3e15ee1d	0.14641614
250	0x3da17d90	0.07885277
251	0x3d9cba58	0.0765273
252	0xbd0ec106	-0.03485205
253	0x3c9cb904	0.019131191
254	0x3b3b413e	0.0028572823
255	0x3db68efc	0.08913991

onnx::LSTM_598 f4 [2, 128, 32]
0	0x3e00684b	0.12539785
1	0x3dbd5667	0.092449956
2	0x3d8e9d3a	0.06963582
3	0xbdef3044	-0.11679128
4	0x3e278fad	0.16363402
5	0x3df0db4d	0.11760578
6	0xbaf6936c	-0.0018812246
7	0x3e07b600	0.13253021
8	0xbe1718c9	-0.14755549
9	0xbd3612c7	-0.0444515
10	0xbd9b47c1	-0.07582045
11	0xbe0bae75	-0.13640769
12	0x3e334fbc	0.17510885
13	0xbda860f9	-0.08221621
14	0xbce243d8	-0.027620241
15	0x3c30878c	0.010774504
16	0x3dc4466f	0.09583747
17	0xbe18e9ca	-0.14932933
18	0x3d851ed0	0.06500018
19	0xbce3312b	-0.027733406
20	0xbd45a1e9	-0.048250113
21	0xbe0df43c	-0.138627
22	0xbd8b8810	-0.06813061
23	0xbe2298df	-0.15878628
24	0x3e2bca5a	0.1677641
25	0x3dfd64fe	0.12372778
26	0xbd3ec783	-0.046576988
27	0x3ccb0010	0.024780303
28	0xbc321db1	-0.010871337
29	0x3c4cdf6f	0.012504443
30	0xbae4845b	-0.0017434465
31	0xbd941a26	-0.0723155
32	0x3e2471de	0.16059062
33	0xbd923a82	-0.07140066
34	0xbe2b8289	-0.16749014
35	0x3e04e16f	0.12976621
36	0x3e0ca1bf	0.13733576
37	0x3e11a9ca	0.14224926
38	0xbd7adc4c	-0.061245248
39	0xbe337271	-0.17524125
40	0x3c5c1b92	0.013434308
41	0x3de5493e	0.111956105
42	0xbc53b2b2	-0.012921022
43	0x3de675eb	0.1125296
44	0xbda2f476	-0.079567835
45	0xbda83399	-0.082129665
46	0xbdd9b66f	-0.106304996
47	0x3db36bb0	0.08760774
48	0x3da15d88	0.07879168
49	0x3dcdce3d	0.100491025
50	0xbd90f680	-0.07078266
51	0xbda90933	-0.08253708
52	0xbce5fc2f	-0.028074352
53	0xbd8bdf83	-0.06829741
54	0x3e09362d	0.13399573
55	0x3e31b769	0.17355122
56	0x3c60a2c9	0.013710686
57	0xbdcafabf	-0.09911107
58	0x3d953131	0.07284773
59	0x3de942b1	0.113896735
60	0x3e10887f	0.14114569
61	0xbdbc35ec	-0.09189972
62	0x3ddb6def	0.107143275
63	0x3e12f9cf	0.14353107
64	0xbe1b7e57	-0.15184914
65	0xbd5772c5	-0.052599687
66	0x3dcfa778	0.10139364
67	0xbe2c6ef5	-0.16839202
68	0x3df191c2	0.11795379
69	0xbc90a06b	-0.017654618
70	0x3c8c2cc9	0.017111199
71	0xbdd93e9f	-0.10607647
72	0xbdb86ca0	-0.090050936
73	0xbe30e7d6	-0.17275938
74	0x3e0f1ff0	0.13977027
75	0xbc40793c	-0.0117476545
76	0xbe277655	-0.16353734
77	0x3c3f862a	0.011689702
78	0xbe11a574	-0.14223272
79	0x3dc9b65c	0.098492354
80	0x3d79dcae	0.061001472
81	0xbe3443e3	-0.17604022
82	0xbd7c35a7	-0.061574604
83	0xbc9cf3c0	-0.019159198
84	0x3d5ffee4	0.054686442
85	0x3d8313a4	0.064002305
86	0xbe041bef	-0.12901281
87	0xbcab1e5f	-0.020888506
88	0xbd94c3d8	-0.07263917
89	0x3b363b5e	0.0027806382
90	0xbd8f4560	-0.06995654
91	0xbd46318a	-0.048387088
92	0xbdc6c8bd	-0.097062565
93	0xbe22d96a	-0.1590325
94	0xbc7b3170	-0.015331611
95	0x3cbbf8b1	0.022945734
96	0x3d0a6e83	0.0337968
97	0x3d89deb4	0.067319304
98	0x3dd2ceb8	0.10293335
99	0x3c2d0777	0.010560862
100	0xbde84eed	-0.11343179
101	0xbd44a3af	-0.048007663
102	0x3e2a85fb	0.16652672
103	0xbdf1a0d1	-0.117982514
104	0xbe1b1e9c	-0.15148395
105	0x3defaac5	0.117024936
106	0x3daaea6e	0.08345495
107	0xbe083df5	-0.13304885
108	0xbbf9f1bd	-0.0076276944
109	0x3e2ec367	0.17066728
110	0xbdc943fa	-0.098274186
111	0xbd96dab4	-0.07365933
112	0x3ce3db72	0.0278146
113	0xbc8f8d9f	-0.017523585
114	0xbdc56a53	-0.0963942
115	0xbc9f4531	-0.019442173
116	0x3d6191eb	0.0550708
117	0x3cd7f0a3	0.026359862
118	0x3cefc95a	0.029270817
119	0xbe33c1ee	-0.17554447
120	0x3ddb0219	0.106937595
121	0xbdbc7d6e	-0.09203611
122	0x3da3584e	0.07975827
123	0xbc14a0f9	-0.009071582
124	0x3d1a5a0e	0.03768354
125	0x3d98571b	0.07438489
126	0x3dea8a80	0.11452198
127	0xbdb0524b	-0.08609446
128	0x3dd8d17f	0.10586833
129	0x3e28ccc2	0.16484359
130	0xbc9104e0	-0.01770252
131	0xbdf22432	-0.1182331
132	0x3d80b259	0.06284017
133	0xbd865f33	-0.065611266
134	0xbe0bb673	-0.13643818
135	0x3e34797c	0.17624468
136	0x3d874491	0.06604875
137	0xbdfa9177	-0.122347765
138	0x3b659a40	0.0035034567
139	0xbd3142c1	-0.043276552
140	0x3de356f4	0.11100569
141	0xbd5ca0e8	-0.05386439
142	0x3d8567e9	0.0651396
143	0xbdab89d7	-0.083759
144	0xbe05a53a	-0.1305131
145	0x3adee127	0.0017004356
146	0xbcfd55e3	-0.030924743
147	0xbe2d7f5d	-0.16943116
148	0x3d98994f	0.07451116
149	0xbd77f521	-0.060536508
150	0x3d60b2c8	0.054858
151	0x3e1e9006	0.15484628
152	0x3e090ac0	0.13383007
153	0x3d246901	0.040139202
154	0x3d115d7c	0.035489544
155	0xbc091955	-0.008367856
156	0xbe04690b	-0.12930696
157	0xbe060f5b	-0.13091795
158	0x3d441500	0.04787159
159	0x3bf7d7fc	0.007563589
160	0x3d0ac62c	0.033880398
161	0xbdfa22a9	-0.12213642
162	0x3dbacbd4	0.091209084
163	0x3c35232e	0.011055751
164	0x3d47e469	0.048801813
165	0x3d72488e	0.059151225
166	0x3e2c9098	0.16852033
167	0xbdf35cf2	-0.11882962
168	0xbc119930	-0.00888662
169	0xbe2a468d	-0.16628475
170	0xbc890397	-0.016725345
171	0x3e297ad4	0.16550761
172	0xbc604490	-0.013688222
173	0xbcf919d9	-0.030407833
174	0xbd5a2c55	-0.053264935
175	0xbe13d2c5	-0.14435871
176	0x3df7d029	0.1210025
177	0x3d1307de	0.035896175
178	0x3da096de	0.07841276
179	0x3d8c1472	0.06839837
180	0x3d8060d8	0.062684715
181	0xbe0ce06c	-0.13757485
182	0x3de64009	0.112426825
183	0x3dfb13b2	0.12259616
184	0x3c1a7acd	0.009428692
185	0x3e086137	0.13318335
186	0x3e345935	0.17612155
187	0x3de7bd93	0.11315455
188	0xbd81b37b	-0.06333061
189	0x3da640d3	0.08117833
190	0xbd324c4b	-0.04352979
191	0x3e2f2cfe	0.17107007
192	0x3db7b52d	0.089701034
193	0x3dc8f130	0.09811628
194	0x3da34476	0.07972042
195	0x3d04e797	0.032447424
196	0x3e13d40e	0.14436361
197	0xbc94a41c	-0.01814466
198	0xbe20de2b	-0.1570975
199	0x3ba9c761	0.0051812385
200	0xbde659c4	-0.1124759
201	0x3dcc9191	0.09988702
202	0x3ce122dc	0.027482443
203	0xbe25ccc3	-0.16191392
204	0x3deb0798	0.11476058
205	0x3e03221f	0.12805985
206	0xbe26e4c1	-0.162982
207	0xbc28fd53	-0.010314303
208	0xbe05dd49	-0.13072695
209	0xbdcea582	-0.10090162
210	0x3df06742	0.11738445
211	0x3d9fafc9	0.077972
212	0x3c671d91	0.01410617
213	0xbdaead55	-0.08529154
214	0xbe0d7e7d	-0.13817783
215	0xbca9301a	-0.02065282
216	0xbdd18754	-0.1023089
217	0xbc90a2ac	-0.017655693
218	0x3e108c88	0.14116108
219	0x3d1fb6e1	0.038992766
220	0xbd164bd3	-0.036693405
221	0x3cb73d11	0.022367986
222	0x3e1222dc	0.1427111
223	0xbd7bd928	-0.061486393
224	0xbe233ce8	-0.15941203
225	0x3e335e0e	0.17516348
226	0x3e1616aa	0.14657083
227	0x3e010f4f	0.12603496
228	0xbdebf6a1	-0.1152165
229	0x3e34dc0b	0.17662065
230	0x3d9b7b54	0.07591882
231	0x3da07191	0.07834161
232	0xbdfc10d7	-0.123078994
233	0x3dc389db	0.09547778
234	0xbd8a61b8	-0.067569196
235	0xbdea32d2	-0.114354745
236	0x3e00ea9a	0.12589493
237	0x3e029846	0.127534
238	0x3dde4e13	0.10854735
239	0x3d971bab	0.07378324
240	0xbd59d923	-0.053185593
241	0xbdf6c12a	-0.12048562
242	0x3e01026c	0.1259858
243	0x3ceea628	0.029131964
244	0x3e28076a	0.16409078
245	0x3e124648	0.14284623
246	0x3cdefef0	0.027221173
247	0xbdfcd113	-0.12344565
248	0x3e316819	0.17324866
249	0xbe12c831	-0.1433418
250	0xbbc817e0	-0.0061063617
251	0xbd2ce2eb	-0.042208593
252	0xbdd30706	-0.10304074
253	0x3db4c5a1	0.08826757
254	0xbceadd33	-0.02866993
255	0xbcf55f7a	-0.029952753
