src/midi2hands/models/onnex/model.onnx (onnx, 252047 bytes, 12 tensors)

fc.weight f4 [10, 64]
000000 d5 89 ef bd 84 fe 01 3d f4 c6 94 be 58 5a 89 bc
       -0.11696211 0.031736866 -0.2905804 -0.016766712
000010 2c fe 81 be a1 d8 53 be f6 ec 56 be 49 73 4c 3e
       -0.2538923 -0.20688106 -0.20988831 0.19965853
000020 4a 2c b7 3d f8 f6 ff bd c5 c0 c2 3e fd 62 10 3c
       0.08943994 -0.124982774 0.38037696 0.008812663
000030 f2 17 e4 bd 78 79 30 3e 08 53 14 3e 51 89 80 3c
       -0.1113738 0.17233837 0.14484799 0.015690478
000040 da 86 b4 be a9 dc 5c be 91 bb 00 bd 37 ca 71 3e
       -0.35259134 -0.2156855 -0.031428877 0.23612295
000050 47 e5 4f 3e 38 42 f2 bd 14 0c a0 be dc de 9a bd
       0.20302306 -0.118290365 -0.31259215 -0.07562038
000060 15 b9 92 3e 73 65 8a 3e 8f 0c 0d bd 01 f1 f3 3e
       0.2865683 0.27030525 -0.034435805 0.4764481
000070 0f ce 8a be 74 48 40 3e 84 de 46 be fc 18 c0 be
       -0.27110335 0.18777639 -0.1942082 -0.37519062
000080 0f ae f9 3d 4e d9 ab 3d 01 9b c2 bd 84 30 62 be
       0.12191402 0.08391057 -0.09502221 -0.2208882
000090 fd 51 42 bd 6b b8 b8 bc 3a c0 33 3e 76 e2 34 3e
       -0.04744147 -0.022548875 0.17553797 0.17664513
0000a0 46 2e 05 3d b6 bc b5 bd 3f 73 d1 3d 3a 62 88 3e
       0.032514833 -0.088738844 0.102270596 0.2663744
0000b0 14 f3 03 be 63 d4 2b be ab e1 6f bd d1 29 a0 3b
       -0.12885696 -0.16780238 -0.058564823 0.0048877974
0000c0 8c d2 90 3e 27 de bb be df 10 ef bd 57 7e 01 be
       0.28285635 -0.36692926 -0.1167314 -0.12645851
0000d0 f0 f3 8e bc 54 d0 99 3d 8e dc 92 ba 52 0f 1f be
       -0.017450303 0.075104386 -0.0011204646 -0.15533188
0000e0 6c 79 d2 bd 13 eb 30 3e 9e 4b 81 3e 6a 1d df 3c
       -0.10277066 0.17277174 0.25253004 0.027235705
0000f0 e9 52 de 3c cf 32 e4 be c6 1f 04 be 91 57 05 be
       0.027139144 -0.44570014 -0.12902746 -0.13021685
000100 82 87 91 be ae a2 99 3d 49 4c ac be fb 43 90 bd
       -0.28423697 0.07501732 -0.3365195 -0.07044216
000110 4f 84 a2 be b4 23 14 be 29 fe 8c be 4d 1e 29 3e
       -0.31741568 -0.14466745 -0.2753766 0.16515465
000120 a0 d8 dc 3c d4 80 af bd 3d 5b dc 3e 3a 27 1b be
       0.026958764 -0.08569494 0.4303836 -0.15151682
000130 48 56 0d be 7f aa 0b 3e 88 bf cc 3d 3a 26 29 3e
       -0.13802445 0.13639258 0.09997469 0.16518489
000140 2b 89 a5 be 41 01 45 be 3c 71 88 be 99 2e 0a 3e
       -0.32331213 -0.1923876 -0.2664889 0.13494338
000150 8b 79 db 3d 8a 72 22 be 87 53 74 be c7 61 6f be
       0.10716542 -0.15864006 -0.23859988 -0.23377143
000160 01 04 94 3e 62 b6 66 3e dc aa 6d 3c 4b 8a c5 3e
       0.28909305 0.22530511 0.014506068 0.38582072
000170 e7 8f b0 bd 71 50 de 3d 07 2f 55 be 65 b0 7d be
       -0.08621197 0.10855187 -0.20818721 -0.2477432
000180 e1 5b 0c bc d8 bf d6 bc 27 b8 8d 3d 07 a6 80 be
       -0.0085668275 -0.026214525 0.0691989 -0.2512667
000190 af 75 48 bd 90 53 2e bc 9b d0 19 3d df 48 7e 3e
       -0.048940357 -0.01064004 0.037552457 0.24832486
0001a0 00 66 97 bd 39 54 bd bd 14 20 13 3e 68 a9 b7 3e
       -0.07392502 -0.0924458 0.14367706 0.35871434
0001b0 5a fc 45 bc 5c e3 17 3c 0f f0 c7 bd f9 0a d0 bd
       -0.012084091 0.009270515 -0.097625844 -0.10158343
0001c0 d1 09 b1 3e 8a 7d 01 bf 86 78 09 be 8a 3e a3 bd
       0.34577802 -0.5058218 -0.13424882 -0.07970913
0001d0 20 38 80 bd 79 14 22 3e dd b0 5e 3e 67 e8 d5 bd
       -0.06260705 0.15828122 0.21747155 -0.10444718
0001e0 11 71 0a be dc bb 4c 3d cb b2 88 3e 88 29 26 3e
       -0.13519694 0.049983844 0.26698908 0.1622678
0001f0 b7 67 0d be 98 bb d8 be ce 18 73 be 51 98 67 bd
       -0.13809095 -0.42330623 -0.23739931 -0.056541745
000200 b5 2a 13 3e 3a c3 31 be 48 31 d5 3e 40 18 18 bd
       0.1437176 -0.1735963 0.4163916 -0.0371325
000210 cc 14 2c 3e 5e 2b c1 3c 7c 7f 9e 3e b3 99 5f be
       0.16804808 0.02358025 0.30956638 -0.21835975
000220 8b 2e 4a bd e0 5e 63 3c ba 59 af be a5 11 eb 3d
       -0.049360793 0.0138776 -0.34248143 0.11477975
000230 cc ec c2 3d ee 6d dd bd 24 5a 24 bd 9a b4 1b be
       0.09517822 -0.10811983 -0.040125027 -0.15205613
000240 db 3d f1 3e 1f fe 3d 3e cd c4 e9 3d 2d 8a 37 be
       0.47117504 0.18553971 0.1141449 -0.17923804
000250 28 f5 18 be e8 fe 4b ba 03 72 51 3e 41 4e 4b 3e
       -0.1493727 -0.00077818194 0.20453648 0.1985407
000260 95 df 6a be 9b 8b 21 be 80 74 27 be 68 ba b6 be
       -0.22936852 -0.15775912 -0.16353035 -0.35689092
000270 c3 9e 26 3e dd 85 b5 bb 37 5a 94 3e a4 28 8d 3e
       0.162715 -0.0055396394 0.28975078 0.2757007
000280 db 99 ca bd d9 eb d3 bd 4a c3 a4 3d 91 c9 55 3e
       -0.09892627 -0.10347719 0.08045061 0.20877673
000290 cb dd 60 3c 0a ba 51 3e 33 7a 60 be 6e 99 e2 bd
       0.013724755 0.20481125 -0.21921615 -0.11064421
0002a0 db b7 fb 3d 8c aa da 3d 50 29 42 be ca 4a c2 bd
       0.12290927 0.106770605 -0.18961072 -0.09486921
0002b0 e9 88 41 3e 13 da 6c bc 87 ed c2 3d a3 52 35 bc
       0.18899883 -0.01445629 0.09517961 -0.011067065
0002c0 e3 c0 3b be ca 3f bf 3e 2b 61 4e bc db 69 02 bd
       -0.18335299 0.37353355 -0.012596409 -0.031839233
0002d0 cd ad b7 bd ec 12 3c be 0b 80 04 be b8 3c ac bd
       -0.08968697 -0.18366593 -0.1293947 -0.08410019
0002e0 18 46 d7 3d bf 7e 4d 3d 29 44 6f bd 6c 76 29 be
       0.10511416 0.050169703 -0.058414612 -0.1654908
0002f0 52 3a ae 3d 39 60 84 3e 56 24 92 3e 1b a2 c3 3d
       0.085072175 0.25854662 0.28543347 0.095524035
000300 7b ac 35 3d aa 90 13 be 6a b0 98 3e c3 d8 e5 bc
       0.044353943 -0.14410654 0.29822093 -0.028057462
000310 90 02 a2 3e e8 b5 04 3e 9f 4b 8f 3e ec a9 aa be
       0.3164258 0.12960017 0.27987382 -0.33332765
000320 d4 86 fb 3a 0c 5b fc bc 44 b2 54 be 04 68 7f 3d
       0.0019189962 -0.030805133 -0.20771128 0.062355056
000330 07 b5 83 bd bf 26 d3 bd e4 0a a7 bd 50 43 e4 bd
       -0.064310126 -0.103101246 -0.08156374 -0.11145651
000340 3d 81 e0 3e d5 5d 53 3e 96 b0 b3 3c 23 20 23 be
       0.438486 0.20641263 0.021934789 -0.15930228
000350 31 8a 7f be 9a 32 03 3e e2 d7 38 3e 64 2c d4 3d
       -0.2495506 0.12812272 0.18051103 0.10360029
000360 69 ca 89 bd 53 d2 7e be 9c dc 33 3c a1 54 b4 be
       -0.0672806 -0.2488492 0.01097789 -0.35220817
000370 8a d4 52 3e 1a cd 54 be 8e 0d 22 3e 23 16 61 3e
       0.2058889 -0.20781365 0.15825483 0.219811
000380 bc d9 b8 ba 55 49 82 bd 28 ce bd bd dc 06 28 3e
       -0.0014102976 -0.06361643 -0.09267837 0.16408867
000390 de 55 c0 3d fb d4 af 3c 25 41 29 bc eb 73 39 be
       0.09391378 0.021463862 -0.010330473 -0.18110625
0003a0 b5 98 07 3e 17 dd 40 3e 4d 25 9e be a1 59 85 be
       0.13241847 0.18834339 -0.30887833 -0.26044944
0003b0 59 65 09 bd 00 ae 4e 3e 65 b8 a6 3d c0 2a 0d 3e
       -0.03354392 0.20183563 0.08140639 0.13785839
0003c0 9d 74 2e be a9 a9 b3 3e 06 65 e9 3d 4a f8 03 3e
       -0.17036672 0.35090378 0.11396222 0.12887684
0003d0 da 75 0b be df 80 88 bc 4d a4 39 3c 3d 79 a1 3d
       -0.13619176 -0.016663013 0.011330676 0.078844525
0003e0 cc 5d b5 3c 8f d6 3b be 79 aa 2d be 55 49 96 bd
       0.022139452 -0.18343566 -0.16959561 -0.07338206
0003f0 59 73 9b 3d 1f 74 af 3e 42 6c 4d 3e 9f 87 5f bc
       0.0759036 0.3426828 0.20060828 -0.013643174

fc.bias f4 [10]
000000 9f bf 70 bd 11 dc 05 bd 41 4e 92 bd e3 9a b5 3c
       -0.058776494 -0.032680575 -0.07143832 0.022168582
000010 3f e9 43 3d c8 27 a8 bd 23 30 da bd 2d 1d 85 3c
       0.047829863 -0.08210713 -0.106537126 0.016249264
000020 bb b3 8d 3d 3c 1d 66 3d
       0.069190465 0.056180224

fc2.weight f4 [1, 10]
000000 fb 63 5b be fe 6e 19 be 6a 1f cc 3d 47 0b 4f 3e
       -0.21424858 -0.14983746 0.09966929 0.20219146
000010 13 7e 2c 3e e4 90 4a 3e 0f 1b 72 3e 1a c1 a7 be
       0.16844968 0.19781834 0.23643135 -0.32764512
000020 3d 92 1f be 7e a1 6a 3e
       -0.15583129 0.22913167

onnx::LSTM_549 f4 [2, 256]
000000 5d be 47 3f b3 c5 a7 3d 57 0b 1d 3e 1c d3 99 3d
       0.78024846 0.08192005 0.15336357 0.07510969
000010 70 7c f3 3e d9 64 57 be 2a 08 d3 bc 78 ff 8a 3d
       0.47555876 -0.21034564 -0.025760729 0.06787008
000020 f2 9d 66 be d1 3b 0d 3c 07 d2 38 3f a6 97 a6 bd
       -0.22521189 0.008620218 0.72195476 -0.081343934
000030 4f 62 16 3f 08 ef bb bc 42 66 66 3c 21 eb 33 3c
       0.58743757 -0.022941127 0.014062466 0.010981352
000040 c3 f5 12 be 71 5e 64 bd f8 ac 9c 3d 07 57 50 3f
       -0.14351563 -0.05575413 0.07650179 0.81382793
000050 56 b2 84 3e df 64 9a 3d 3f ca 20 3e c7 63 05 bb
       0.2591731 0.07538771 0.15702151 -0.0020353661
000060 9c 10 bb 3d 94 95 87 3d 32 fa b1 bc a4 ea d4 3d
       0.09134027 0.06620327 -0.021725748 0.10396317
000070 13 a0 cb bd bf 78 5f bd 98 34 32 3d d3 80 23 3f
       -0.09942641 -0.05455851 0.04350719 0.63868445
000080 a3 bb 1a 3f 4c 2b ec 3d 29 e5 00 3e e8 f5 ac bc
       0.6044256 0.11531696 0.12587418 -0.021113351
000090 f2 53 01 3f 02 fb 32 3e 5f 11 ff bd c7 b4 0c 3e
       0.50518715 0.17478564 -0.12454485 0.13740836
0000a0 a5 f6 14 bc c6 5a f9 bd f5 1f 3c 3f 3d 89 46 be
       -0.009092008 -0.12175517 0.7348626 -0.1938829
0000b0 61 b5 92 3e 0b 00 96 3d 9e 2c ab bd 70 87 14 be
       0.28654006 0.07324227 -0.083581194 -0.1450479
0000c0 30 18 97 bd 11 34 3d be bd c2 c4 3e c7 6f 30 3f
       -0.0737766 -0.18476893 0.38429824 0.6892056
0000d0 3b 7f 14 3f 62 26 2e 3d c4 88 99 bd 5c 68 1f be
       0.5800664 0.042517073 -0.07496789 -0.15567154
0000e0 17 2b 78 3c 22 aa 23 3d 65 1a 57 bd 65 cd 9c 3e
       0.015146992 0.039957173 -0.052515406 0.30625454
0000f0 ef 78 97 be b2 63 aa be 13 b0 2f 3d f1 06 58 3f
       -0.29584453 -0.33279186 0.042892527 0.8438559
000100 e8 f4 cb ba 11 ca ae 3d 79 2a 97 3b 49 29 7e 3e
       -0.0015560659 0.08534635 0.0046132174 0.24820437
000110 12 8f 24 be f0 a0 27 3e 04 99 38 be f0 57 cd bd
       -0.16070202 0.16369987 -0.18027121 -0.10026538
000120 bb 62 a9 3d c2 39 5a 3e 85 3d e4 bd d9 ab 86 bd
       0.082707845 0.21311095 -0.111445464 -0.06575746
000130 12 97 8f be 86 8d 4d be ad 63 a9 3d ff 35 3f be
       -0.28044945 -0.20073518 0.08270965 -0.18672942
000140 08 b8 27 be 65 c5 1d be 92 57 8b 3c 32 aa 3a be
       -0.16378796 -0.15407331 0.01700953 -0.18228987
000150 0f af a5 be c8 e8 93 bc c8 2f 03 be 4a a1 44 3e
       -0.32360122 -0.018055335 -0.12811196 0.19202152
000160 09 54 88 3e 02 be f8 bd 97 e1 d9 3c 43 c5 cb bd
       0.26626614 -0.12145616 0.026596827 -0.09949734
000170 36 3b aa 3d c2 f7 52 be c9 7e 36 be fc 73 93 be
       0.08312075 -0.20602325 -0.17821802 -0.28799427
000180 23 27 5f 3e 7b 00 61 be 7f 4b 08 be 83 97 fe 3d
       0.21792273 -0.2197284 -0.1331005 0.12431242
000190 90 40 0c 3e 8e d4 88 bd d5 b3 76 bd 3f 2a 1f bb
       0.13696504 -0.066811666 -0.060230095 -0.0024286655
0001a0 b8 f1 fd 3b 57 03 d5 bd 6b 5c 6c be 82 f2 94 bd
       0.0077497624 -0.10401028 -0.2308213 -0.07272817
0001b0 44 0f 75 be 42 41 fa bd f2 2a 94 3b 9b 25 c2 3d
       -0.23931605 -0.12219478 0.004521721 0.09479829
0001c0 7b 05 7a 3d 8b 3d a9 bd bd 0b 67 3d 42 41 ca bd
       0.061040383 -0.082636915 0.05640768 -0.09875728
0001d0 57 b6 10 be ae 40 30 3b a6 aa d9 bd 3c 07 37 be
       -0.14132057 0.002689402 -0.10628252 -0.17873853
0001e0 8d e6 2e bd 66 bd ff bd 16 71 fe bd e5 dc 33 bd
       -0.04270034 -0.12487297 -0.12423913 -0.043911833
0001f0 0f 7e d6 3d 17 d8 a5 bd 29 c3 f8 3d 39 ce 5e bd
       0.104732625 -0.080978565 0.12146599 -0.054395888
000200 15 13 1d 3f a5 17 b3 bb 39 db 89 3d 2c 29 ff bd
       0.6135724 -0.005465465 0.067312665 -0.12459025
000210 f1 8f bd 3e 59 03 31 be ef cc 33 3e 45 fa 32 3e
       0.3702388 -0.17286433 0.17558645 0.17478283
000220 82 0e 73 be b5 e8 f7 3d 58 a3 01 3f b4 d5 87 be
       -0.23736003 0.12104932 0.5063987 -0.2653023
000230 ab e6 d2 3e ab 0c a2 bd 88 68 68 3b e4 c4 a3 bd
       0.4119161 -0.079125725 0.0035462696 -0.07996538
000240 73 ef 63 bd b3 04 e7 bd 6b 5f 0e 3e f1 27 41 3f
       -0.05564828 -0.11280193 0.13903587 0.7545157
000250 9b a4 a0 3e ab a6 e4 3c 01 73 29 3e 87 e3 a7 bd
       0.31375584 0.027911505 0.16547777 -0.08197694
000260 df 81 0c bd d9 8b cf 3d 3d 27 43 3e 51 cd 00 3e
       -0.034303542 0.10134096 0.19057937 0.12578322
000270 a6 76 51 be e1 8b ad be 35 f1 2d 3e 38 04 43 3f
       -0.20455417 -0.33895782 0.16986544 0.7617831
000280 81 7d 34 3f 5f 3c 37 be 29 d7 f8 3d 9d 31 9c 3e
       0.70504004 -0.17894123 0.121504135 0.30506602
000290 a3 6a c4 3e 32 e0 4b bd 81 43 22 3e d1 31 a7 3e
       0.38362607 -0.049774356 0.15846063 0.32655194
0002a0 7d 8c 80 be a2 d9 59 be 4f da 29 3f 60 91 53 3d
       -0.25107184 -0.21274427 0.6634874 0.051652312
0002b0 c9 0f 9c 3e 16 25 4d bd 47 b7 3e 3e 68 7d 52 be
       0.30480793 -0.050084196 0.18624602 -0.20555651
0002c0 7f 59 3f be 1d 8c 51 be af 88 9c 3e 27 21 80 3f
       -0.18686484 -0.20463605 0.3057303 1.0010117
0002d0 d1 8f f7 3e 96 4f b4 3d 5f 87 7c bd 81 53 16 bd
       0.4835191 0.08804242 -0.061652537 -0.03670073
0002e0 ef 4a b3 bc f1 e6 9f 3d 9b 67 a6 3c ce c6 35 3e
       -0.021886317 0.078077205 0.020313075 0.17751619
0002f0 03 1c 3a be 55 f1 b1 bd ee 11 70 3e 78 ee 29 3f
       -0.18174748 -0.086886086 0.2344434 0.663795
000300 68 a5 49 be 55 70 8d 3d bc 82 ad bd 0e ae 8f 3d
       -0.19692004 0.06906191 -0.08472201 0.0701562
000310 ba 1f e1 bd 26 e0 95 3e 10 12 16 be a9 8e 41 3c
       -0.109923795 0.29272574 -0.14655328 0.011813798
000320 27 6a b7 3b ee 88 37 3e 94 d9 aa bc 8b d8 39 bd
       0.005597371 0.17923328 -0.020855702 -0.045372527
000330 c5 43 16 be 6e 5f 94 bd 4a 23 62 3e 89 e8 05 be
       -0.1467429 -0.07244764 0.22083774 -0.13076986
000340 94 4a 37 be 7f fc 13 bd eb 54 f0 3d 58 56 37 be
       -0.17899543 -0.03612947 0.11734947 -0.17904031
000350 89 49 f6 bd a9 13 fe bd 66 76 be 3d 64 0f b2 3e
       -0.120257445 -0.124060936 0.092999265 0.34777367
000360 6b bb 73 3e 07 3b 11 be b3 84 a2 bc dd 53 a3 bd
       0.23801963 -0.14182673 -0.019838667 -0.0797498
000370 d7 aa be bd 70 f1 16 be 55 c0 2b ba 91 32 b7 be
       -0.09309929 -0.14740539 -0.0006551792 -0.35780767
000380 90 37 b6 3e da 53 fc bb f1 61 85 3d d2 0c a8 bd
       0.35589266 -0.0077004256 0.065128215 -0.0820557
000390 c5 5a b3 bd 61 f1 02 be 7f 72 77 bd 53 eb db bd
       -0.08757547 -0.12787391 -0.060411926 -0.10738244
0003a0 f8 24 fe 3d 3f 8d c5 bd 05 78 9a be 58 9f db 3c
       0.12409395 -0.09646081 -0.30169693 0.02680938
0003b0 e3 a0 6e 3d f1 d6 2d be 57 ff 43 3e 4a ed 29 3d
       0.058258902 -0.16976525 0.19140373 0.041486062
0003c0 70 90 74 3b 0e 6c 19 3d a4 d5 14 3e 52 2e 93 be
       0.0037317537 0.037456565 0.14534622 -0.28746277
0003d0 94 49 fe bd 10 ef 53 3e 48 19 fa 3c 36 f2 fa bd
       -0.12416378 0.20696664 0.030529633 -0.12253229
0003e0 c2 32 86 bd b2 ee 0c 3e 29 e9 77 3d cc 35 a9 3d
       -0.0655265 0.1376293 0.060525093 0.08262214
0003f0 89 13 10 be e7 bb 46 bd 41 7d b0 bd bf 13 64 bd
       -0.14069952 -0.04851904 -0.0861764 -0.055682894

onnx::LSTM_550 f4 [2, 128, 4]
000000 34 f8 2f 3f 4b d7 57 3f d2 80 12 3f 7a 59 3d bf
       0.687381 0.84312886 0.57227814 -0.73964655
000010 87 11 c7 3d 9f 93 1e bd d0 b8 93 bd 3c b5 99 3e
       0.0972014 -0.038715 -0.072129846 0.30021083
000020 3b 22 cf be c1 35 4e 3e a7 81 9e 3d 69 1d ac be
       -0.40455803 0.20137693 0.07739573 -0.33616188
000030 f0 9a 39 3d c7 e3 15 be 09 51 e9 bd 4a f6 bb be
       0.045313776 -0.14637671 -0.11392409 -0.3671134
000040 ae b1 c8 3e 20 96 da 3e d3 5a 6c 3e d3 6b 45 bf
       0.3919806 0.4269266 0.23081522 -0.7711765
000050 24 4f a8 bd c3 c7 4e 3e e4 84 44 bd 05 bf 97 bd
       -0.0821822 0.2019339 -0.047978297 -0.07409481
000060 82 c2 bb be 83 67 af 3d 46 13 68 3e f0 17 09 3e
       -0.36671835 0.08564665 0.22663602 0.13388038
000070 52 25 24 be a3 33 c5 3c 81 59 9a 3c d7 ba cb be
       -0.16029862 0.024072474 0.018841507 -0.39790985
000080 12 93 e1 bd 81 0e 42 be 72 98 6d be c0 cd 25 be
       -0.110143796 -0.18950845 -0.23202685 -0.16191769
000090 23 93 22 be ee f7 0c 3e 70 b1 b7 3d ed 90 02 3f
       -0.1587644 0.13766453 0.089693904 0.5100239
0000a0 de 56 5e 3f d7 96 18 3f 95 7d 27 3f 4a cb 64 bf
       0.868513 0.59605163 0.65426 -0.89372694
0000b0 4f 9f 7a bd 2d 9f 84 be 4f 52 6d bd 30 12 67 3e
       -0.061187085 -0.2590269 -0.057939824 0.22565532
0000c0 c3 e9 d3 3e 62 f8 05 3f 54 89 17 3f f7 cd e0 be
       0.41389284 0.5233213 0.5919392 -0.4390714
0000d0 4b e9 2c bd c1 2d 29 bd c0 ed 5e 3d 6d bb bd be
       -0.042214673 -0.0413034 0.054425955 -0.37057057
0000e0 1f 9d 42 3e 0a 23 dd bd 83 7d b7 bd 0b c5 04 be
       0.1900525 -0.10797699 -0.08959486 -0.12965791
0000f0 b0 92 10 bd 04 35 77 bd c3 3b 6f be 5d 23 70 3d
       -0.035296142 -0.060353294 -0.23362641 0.058627475
000100 0c db 2d 3e 20 c7 38 be 90 1a 19 be ce 3b ef 3c
       0.16978091 -0.1804471 -0.14951539 0.029203322
000110 2f cc 9a 3e 2c d1 9d 3c 0f 3d 94 be b9 67 49 be
       0.30233905 0.01926478 -0.28952834 -0.19668473
000120 60 f6 65 3f f7 0b 88 3e f0 2e 8c 3e d7 0b a4 3e
       0.89829063 0.26571628 0.2737956 0.32040283
000130 73 13 6d 3f ba 54 2f 3f 7c 1c 4b 3f e3 4e 66 bf
       0.926078 0.6848866 0.7934034 -0.8996412
000140 c5 b4 bb bc 6b 5e 01 3f d1 1d 02 3f 9d 2d d9 be
       -0.022913346 0.50534695 0.50826746 -0.42417613
000150 13 b8 1c be e3 c2 94 bd de 5d ab bd 28 4a ea be
       -0.15304594 -0.07263734 -0.08367513 -0.45759702
000160 fb 18 9c bd ea 87 3f be b3 06 4b 3c 24 ba 5d 3c
       -0.07621952 -0.18704191 0.012391734 0.013533149
000170 33 71 92 3e 1d 8c 21 b9 30 f2 82 be 6a 6c 73 bc
       0.2860199 -0.00015406353 -0.255754 -0.014857391
000180 fe 5b 97 be 7d 9f d6 bd 4a d9 76 be 1b 56 78 be
       -0.29562372 -0.10479639 -0.24106327 -0.24251597
000190 ca cc d5 3e e9 46 41 3d 88 c1 15 be 81 f9 48 be
       0.41757804 0.047186766 -0.14624608 -0.19626428
0001a0 1e 14 5f bc 27 55 25 3d 3f dc b7 bd f5 04 90 3c
       -0.013615636 0.04036441 -0.089775555 0.017580489
0001b0 95 2e eb 3e 4d 11 96 3e 4a c1 45 3e 7f a8 d7 3e
       0.45933977 0.29310074 0.19312015 0.4212074
0001c0 4b 3e e6 bd 11 4b be 3c 48 c9 59 bc 53 bb af be
       -0.1124235 0.023229154 -0.013292618 -0.34322605
0001d0 d8 65 8d bc d0 c5 3f be 10 17 33 be 16 0e 99 3d
       -0.017260477 -0.18727803 -0.17489266 0.0747339
0001e0 b3 6b c9 3d eb 6a fc 3c fa b7 67 bd 65 b7 0e be
       0.09834995 0.030812701 -0.056571938 -0.13937147
0001f0 3d af c4 3e b9 d8 ff 3e f2 96 0e 3f 4c f2 9a be
       0.38414946 0.49970034 0.55699074 -0.30262983
000200 27 60 5b 3f b2 ca 73 3f 3b b2 5c 3f 1b 1c ed be
       0.8569359 0.95231164 0.8620946 -0.46310505
000210 80 27 91 be c7 c9 59 3d 9c 2b c4 bb 7e ef e0 bd
       -0.2835045 0.053170945 -0.005986644 -0.109831795
000220 15 f7 58 bf 97 b3 77 3d 4f 2f 6b 3c db 9a 08 be
       -0.8475202 0.060474005 0.014354541 -0.13340323
000230 8e b4 2a 3f 73 6e 02 3e 74 36 3e 3d 6b 3b aa bd
       0.66681755 0.12737446 0.04643865 -0.08312114
000240 64 a6 82 3f ba 68 fc 3e bd d6 d1 3e 47 92 74 be
       1.0207028 0.4929865 0.40984145 -0.23883925
000250 c4 9f f4 bc 0c d4 c2 3c 14 67 9b 3e 92 42 3e bd
       -0.029861338 0.023782752 0.3035208 -0.046450205
000260 cf 9d 04 bf 05 d1 0e 3e 46 e0 69 bd 83 81 6b 3e
       -0.51803297 0.13946922 -0.05709865 0.22998624
000270 af c3 34 3e 25 6a 23 3e d0 c0 28 3d 31 a0 14 bf
       0.17652772 0.1595846 0.041199505 -0.5805693
000280 d3 6a a2 be 66 4e fa bd f2 bf 91 bd f1 90 8f 3d
       -0.31722125 -0.122219846 -0.07116689 0.07010067
000290 d0 5f fe be 96 91 5c be 84 43 af bd e6 2a 5f 3c
       -0.49682474 -0.21539912 -0.085577995 0.013621068
0002a0 6e 13 21 3f 29 ef 33 3f e6 72 47 3f b4 81 1d bf
       0.6292027 0.70286804 0.77909696 -0.61526036
0002b0 41 d9 d2 3d 12 88 86 bd e9 0f 83 be 01 88 1b 3e
       0.10295344 -0.06568922 -0.25598076 0.151886
0002c0 8a da 37 3f 10 2c df 3e f2 50 99 3e d4 b5 b3 be
       0.7181784 0.43588305 0.2994457 -0.3509966
0002d0 d1 a4 59 bd 23 1a 73 be e8 eb 65 bc 4c 80 0c bf
       -0.053135697 -0.23740439 -0.014033295 -0.54883265
0002e0 cc 93 6a bd b9 97 4a be 28 58 7f bd 59 26 09 3f
       -0.057269856 -0.1978444 -0.06233993 0.5357414
0002f0 1e 14 fe be 96 d7 a6 bc 73 49 71 be 97 74 51 be
       -0.49624723 -0.020366471 -0.23563175 -0.20454632
000300 cb 36 3a 3e 63 86 98 be 0a f5 58 3c 89 f8 49 3d
       0.18184964 -0.2979003 0.013242016 0.049309287
000310 d5 2d 01 3f bf f8 c5 bd ca c4 8f be 26 40 81 3c
       0.5046056 -0.09666585 -0.28079826 0.015777659
000320 7d c7 da 3e df 0b b2 3e 7f 74 04 3e 59 e9 8b bd
       0.42730322 0.34774682 0.12935065 -0.06831617
000330 4e be 3d 3f 06 fa 40 3f 19 60 60 3f 11 b3 1d bf
       0.74118507 0.75381505 0.87646633 -0.6160136
000340 53 33 31 3f bf 90 12 3f 6d 0e ee 3e 14 60 3f be
       0.6921894 0.57252115 0.4649538 -0.18688995
000350 2c 5b 0c bf 8b e9 55 bd f9 a3 79 3d 12 14 da 3b
       -0.5482662 -0.052224677 0.060947392 0.0066552246
000360 c2 ea 9d be 21 e7 1f be fa c6 32 bd 9e 2a cd be
       -0.30843168 -0.15615512 -0.04364679 -0.40071577
000370 27 ee 81 bc 4f bd 85 3d 11 71 f5 bd a2 73 b8 3d
       -0.01586063 0.065302484 -0.11984456 0.0900643
000380 fe c6 0f bf dd ff 53 be 71 48 63 be c6 4e 27 bd
       -0.56163013 -0.20703073 -0.22195603 -0.04084661
000390 47 67 b1 3e 87 df 86 3d 60 21 54 3d 1d e8 03 be
       0.34649107 0.06585603 0.05178964 -0.12881513
0003a0 63 0d 72 3e fd 48 6c bc b4 7d e4 3b e4 f3 4e 3d
       0.23637919 -0.014421699 0.006972993 0.05052556
0003b0 17 99 32 3f 9c ed 5d 3e 33 a9 fa 3e 5f a4 2f 3e
       0.69764847 0.21672672 0.48957214 0.17152546
0003c0 5e c8 15 be b1 4a 65 be f2 b9 fe 3c 8c 7c 1b 3d
       -0.14627215 -0.22391774 0.031094525 0.037960574
0003d0 07 52 00 3d 86 6e 83 bd 19 63 d3 bd 75 0b da 3d
       0.031328227 -0.06417565 -0.10321636 0.106467165
0003e0 41 af d5 3e 10 63 97 bd 99 9f af 3d 7c e8 ad ba
       0.4173527 -0.073919415 0.08575363 -0.0013268138
0003f0 72 3c 48 3f cd 74 37 3f 21 a3 1d 3f 79 1e 0d be
       0.7821723 0.716626 0.6157704 -0.13781156

onnx::LSTM_551 f4 [2, 128, 32]
000000 fc 88 50 bf 46 04 30 3f 94 9d 03 bf 5e 51 2d 3f
       -0.8145902 0.6875652 -0.5141232 0.6770228
000010 50 12 75 bf ff 0a bd be 69 d0 56 be 33 3f 52 3d
       -0.9573107 -0.36922452 -0.2097794 0.051329803
000020 cd 8a 2d 3f 87 04 48 bf c8 b8 0c bf 38 87 2f bf
       0.6778992 -0.7813191 -0.54969454 -0.685657
000030 a4 ab ea 3e 00 72 43 bf 61 5f 30 3f 47 1c 19 3f
       0.45834076 -0.76345825 0.68895537 0.5980877
000040 af 0d fc be 94 de 09 3f 55 31 0c bf 38 9c 6e 3f
       -0.4922919 0.5385525 -0.54762775 0.9320712
000050 05 2d f0 3e e1 83 75 3e 4b e6 d8 3e 02 13 65 3e
       0.46909347 0.23976089 0.423632 0.22370532
000060 d9 4c 0d 3f a7 a8 1f bf 42 6d 9c be 99 ec 88 3e
       0.55195385 -0.6236672 -0.30552107 0.2674301
000070 e5 0d 9d be 7a 5c 05 bf d7 cd 25 3f ab 3c 28 3f
       -0.30674663 -0.52094233 0.6476721 0.6571757
000080 3d 56 87 be a6 26 5a 3e 50 1c 6d bb 7b 8c 00 be
       -0.26432982 0.21303806 -0.0036180206 -0.12553589
000090 04 82 4b be ab 27 3d 3e 5d e5 7d 3c b1 43 26 bd
       -0.19873816 0.18472163 0.015496579 -0.0405919
0000a0 e3 d2 bc 3e 75 22 69 be 93 85 fc 3d 62 74 99 bd
       0.36879644 -0.2276705 0.12330165 -0.074929014
0000b0 c4 84 21 3e f5 11 70 bc c7 c5 a0 3e e8 66 f1 3c
       0.15773302 -0.014652719 0.31400892 0.029468015
0000c0 de 24 c5 be 59 2c cc bd 7e 6d 69 be 9e f6 d3 3e
       -0.3850469 -0.09969396 -0.22795674 0.4139909
0000d0 c3 27 54 3e c5 ae 9a 3e 09 bf 11 3d bd 65 62 bb
       0.20718293 0.30211464 0.035582576 -0.0034545504
0000e0 3c fb 5b 3e 37 75 f0 3d 3a 3e b9 3e 76 1b 8c be
       0.21482557 0.11741107 0.36180288 -0.273647
0000f0 72 37 ba 3c d6 7e 39 be 10 6f 7f 3d 8e 11 e0 3e
       0.022731517 -0.1811479 0.062361777 0.43763393
000100 b0 77 d6 be 7d 5b 21 3e 25 4c e3 bc ca d7 0f 3e
       -0.4188819 0.15757556 -0.02774627 0.1404716
000110 17 5f d8 3b 78 03 43 be e3 a3 94 3e b6 cd 85 3d
       0.0066031325 -0.19044292 0.29031286 0.06533377
000120 75 c1 cd 3e 00 94 a7 be f0 04 c3 bd 88 cd 50 be
       0.40186659 -0.32730103 -0.09522426 -0.20390904
000130 cf c3 10 3f 30 f6 c0 3d f7 93 f2 3d c7 70 3f 3e
       0.5654878 0.094219565 0.11844628 0.18695365
000140 aa 92 40 be 94 99 92 3e 59 77 a0 be a3 fc a8 3e
       -0.18805948 0.28632796 -0.31341055 0.33005247
000150 a5 08 90 bd 23 99 b5 3d 72 94 d8 3e a6 7c fc 3e
       -0.07032899 0.08867099 0.42300755 0.4931385
000160 63 e1 00 3e 89 b9 a9 be ea 90 8f 3e b5 fd ab be
       0.12585978 -0.33149365 0.28040248 -0.33592
000170 c2 70 31 3e 80 49 ab be c2 e8 a8 3c b5 1a fa bd
       0.1732817 -0.33454514 0.0206188 -0.12212125
000180 d9 a4 80 bd c4 2c d3 bd 41 1b 6d bd f1 e5 6f be
       -0.06281442 -0.10311273 -0.05788732 -0.2342756
000190 2d c7 23 3e 21 fb dd bd 48 65 29 bd 53 f7 40 3d
       0.15993948 -0.10838915 -0.041356355 0.047110867
0001a0 1a 3e 59 3d 13 eb 67 3e ab 3c d4 3e 89 fd af 3c
       0.05303774 0.22648267 0.41452536 0.0214832
0001b0 56 d1 06 be 02 48 37 3e c5 2a e2 be 04 e4 59 be
       -0.13165793 0.17898563 -0.44173256 -0.21278387
0001c0 72 a2 2e bd 0b e6 e8 bd 3f 0b 1d 3e 56 fa e0 3c
       -0.04263539 -0.11372002 0.15336321 0.02746312
0001d0 ee 46 5d bd dc 43 af bd 25 26 5b 3d 74 71 c4 3d
       -0.054022722 -0.08557865 0.053503174 0.09591952
0001e0 6f e4 a1 bc a3 62 c8 3d 0d d6 f0 bd ec 7e 08 3e
       -0.019762246 0.097844385 -0.11759577 0.13329667
0001f0 ca 8e 1d bc 84 c1 ef bd ec b9 03 be 95 18 0e be
       -0.009616563 -0.11706832 -0.12863892 -0.13876565
000200 73 01 8f be ec f3 05 3f 6b 4f ad be 4e 19 f5 3e
       -0.27930793 0.5232532 -0.33849654 0.47870868
000210 61 c3 f1 be 43 dd 21 3e 9a 34 c4 be ac 95 32 be
       -0.47219375 0.15807061 -0.38321382 -0.17439908
000220 11 f3 e3 3e 76 7f e6 be 05 b5 9d be f7 e2 10 bf
       0.44521382 -0.4501912 -0.3080217 -0.5659632
000230 36 23 c8 3e c0 86 c7 be f7 67 76 3e 67 4b 54 3e
       0.39089364 -0.38969994 0.24063097 0.20731889
000240 58 88 cd be 5a 81 16 3f 03 fa 1d bf ee 21 c0 3e
       -0.40143085 0.58791125 -0.6170961 0.37525886
000250 21 22 23 3e ee 6e bc 3e b2 d4 bd 3e 08 39 42 3e
       0.15930988 0.36803383 0.37076336 0.18967068
000260 09 72 67 3e 86 68 f1 bd 1d 6c f5 bd 54 d4 6a bc
       0.22602095 -0.117875144 -0.119835116 -0.0143328495
000270 2e 15 02 be 45 d9 35 be cc de 26 3e 7d ac b6 3e
       -0.12703392 -0.17758663 0.16295928 0.35678473
000280 11 68 7d be 33 8b 8a 3d a4 6f 50 3d 33 41 45 3c
       -0.2474673 0.067648314 0.05088772 0.0120394705
000290 a9 a1 56 bd 9d 2a b0 bd 30 99 bd 3d df ea e8 3c
       -0.052400265 -0.08601878 0.09257734 0.028432308
0002a0 1b c2 39 3e 33 f6 85 bd 23 03 11 3e 10 13 83 bd
       0.18140452 -0.065410994 0.14161353 -0.0640012
0002b0 10 a3 81 3e 0d 24 b8 3d ec 75 0b be 46 d7 b9 bd
       0.2531972 0.08991251 -0.13619202 -0.09074263
0002c0 ea 0c 24 3d 7e 1f dc 3d fa be b3 3d bb d2 02 3e
       0.04005138 0.10748194 0.0877666 0.127757
0002d0 90 8b db 3e b8 c9 10 be ee 99 20 3e 13 9a 48 be
       0.42879915 -0.1413945 0.1568372 -0.19590025
0002e0 3f 0e e1 3e 6b 75 6c be fd 66 0a 3c 73 43 02 3e
       0.4395618 -0.23091666 0.008447406 0.12721042
0002f0 2f ce 29 be 3a 55 49 3d 45 8c a4 bd 93 26 a5 3d
       -0.16582559 0.049153544 -0.08034567 0.08063998
000300 70 ff dc be fe 40 46 3e 14 4b 81 be 02 fd b8 3e
       -0.43163633 0.1936073 -0.25252593 0.3613053
000310 65 25 28 be b2 46 bf 3e 8c a0 1c bd 2c c7 00 bf
       -0.16420515 0.37358624 -0.038239047 -0.5030391
000320 07 cb 6b 3d 35 1f 51 be 16 44 f1 3e 6f a3 89 be
       0.05756667 -0.20422061 0.47122258 -0.26882502
000330 4c ad 71 3e 84 a4 4e bc 51 85 b8 3d 88 36 8e 3e
       0.23601264 -0.012612466 0.09009803 0.2777598
000340 7e 0a 71 bc 45 28 57 3d 26 4b 5f be 8c 91 93 3e
       -0.014711974 0.05252864 -0.2180601 0.2882198
000350 ec f3 e2 bd db 97 71 3c 7b 57 48 3e 66 05 9d bc
       -0.11081681 0.014745678 0.19564621 -0.019167613
000360 87 44 4a 3d 91 29 ba be 55 bc 32 bd a0 aa 28 3e
       0.04938176 -0.36359838 -0.04363664 0.16471338
000370 9c b6 89 bd 01 96 85 bc f8 c4 e7 bd 5a 64 64 3e
       -0.06724283 -0.016306879 -0.11316866 0.22303906
000380 ac 64 ce be 20 39 1a be 2f 0d 12 3d 5a cf 5f 3d
       -0.40311182 -0.15060854 0.035657104 0.054641105
000390 2a bd 8f be ff 94 8a 3d c8 71 29 be 3c b6 a8 be
       -0.28074008 0.067667 -0.1654731 -0.32951534
0003a0 43 72 88 3e d6 2e f3 3d 58 19 09 3f 43 89 7c be
       0.26649675 0.118741676 0.53554296 -0.24661736
0003b0 c9 90 b6 3e 75 2c 76 be e4 9f a6 be 4e c2 29 3d
       0.35657337 -0.24040397 -0.32543862 0.04144507
0003c0 e2 fc cc bd b6 bc be 3e 8c 6a 55 3d 8d 7b ec 3e
       -0.10009171 0.3725335 0.052103564 0.46188012
0003d0 e3 7c ea 3c dc f0 07 3e 2f f3 87 bb b0 d2 ed bd
       0.028624004 0.13275474 -0.004148863 -0.11612451
0003e0 37 33 08 3e d3 0d f1 bd 0c 51 d3 be a8 9d ef 3e
       0.13300787 -0.11770215 -0.4127277 0.4679997
0003f0 21 cc fa bc 1f 56 83 be 4c 37 cc 3d e8 e5 9a 3e
       -0.030614914 -0.25651643 0.099714845 0.3025353

onnx::LSTM_596 f4 [2, 256]
000000 8e ef 52 be 0c 7d e2 3d 3c 91 62 bd 12 ab a5 3e
       -0.20599195 0.11059007 -0.055314288 0.3235708
000010 fc f8 6e bd eb 8a 01 3e 38 aa 56 be 71 df cb 3d
       -0.05834292 0.12650649 -0.20963371 0.099547274
000020 a3 3e 2e 3e af 64 14 3e 43 c4 47 3e 63 86 e8 3c
       0.17016082 0.14491533 0.19508462 0.028384393
000030 b7 92 4b 3c e2 ac d8 bd 40 2e 4c 3d b3 de 11 3c
       0.012425116 -0.1057985 0.049848795 0.008903193
000040 e1 de 89 3e 4f 80 2f bd 7e 3b 86 3d d2 6c 2e 3e
       0.26927856 -0.042846974 0.06554316 0.17033699
000050 00 1f b6 bd 2a 7a 73 be 46 01 a9 bd c9 ea e4 bd
       -0.088926315 -0.2377707 -0.08252196 -0.11177594
000060 e4 57 f5 3d 46 14 d0 3d c5 1a ce 3e 6b e2 17 be
       0.119796544 0.10160117 0.402548 -0.14832465
000070 a6 fa 2f be c3 85 92 3e ba 37 81 bd 2c 6d 42 3e
       -0.17185459 0.28617677 -0.06309457 0.18986958
000080 13 ce 3d 3e 8c 0f 8d bd d8 14 3d 3d f2 e2 38 3e
       0.18535642 -0.06887731 0.046162456 0.18055323
000090 18 d9 15 3e 23 7e eb 3d c3 15 6c 3e cf f3 39 3e
       0.14633596 0.11498668 0.23055176 0.18159412
0000a0 51 85 ce bd 1c 3c 13 3d 5b ea cf 3d 63 78 86 3e
       -0.10084022 0.035945997 0.10152122 0.26263723
0000b0 e2 0e ba 3d 8b 72 38 3d 51 c4 1a 3d 52 9f a4 bc
       0.0908487 0.04503111 0.03778488 -0.020095501
0000c0 5b 5b 88 3c f1 c3 6f 3e 1c d5 9e 3e f0 a5 82 3d
       0.016645124 0.2341459 0.31021965 0.06379306
0000d0 42 a8 15 3e d8 e0 42 3e a4 b8 7c 3e d9 8a de bd
       0.14614967 0.19031084 0.2467981 -0.10866327
0000e0 1c be 49 3e 32 26 7b 3d 4e e4 a7 bd cd 1d 95 3e
       0.19701427 0.061315723 -0.081978425 0.291243
0000f0 b0 72 fa bd 77 37 c5 bd e9 57 97 3e d6 07 90 bd
       -0.12228906 -0.0962972 0.29559258 -0.070327446
000100 7b 00 3b 3e 5d 9c 86 3d c5 68 04 3e 39 8f c6 3d
       0.18261902 0.06572793 0.12930591 0.09695286
000110 30 f3 25 3d 45 06 8f 3e 70 3d 92 3e e4 e0 e9 3d
       0.040515125 0.2793447 0.28562498 0.114198476
000120 62 76 4b be e8 9a 78 bd 7f 34 8b 3e 7a 80 6e bd
       -0.19869378 -0.060694605 0.2718849 -0.058227994
000130 f0 86 21 be 3f b6 1c be 5e 08 8c bc cc 86 2e be
       -0.15774131 -0.15303896 -0.017093834 -0.17043608
000140 7f 22 48 3e c5 3d 81 3d f2 79 85 3e f8 f4 8d 3e
       0.19544409 0.0631061 0.260696 0.2772596
000150 ef ec 71 3d 02 85 1a 3d 85 9f 6c 3c a5 35 ce 3d
       0.059063848 0.037724502 0.014442329 0.10068826
000160 b5 70 ef 3d 97 e5 4a 3e 90 75 a4 3e 1b d6 3b bc
       0.11691419 0.19814144 0.32120943 -0.011464621
000170 82 a5 a2 3d 23 1d 20 bd e7 15 c1 3e b8 4a a1 bc
       0.07941724 -0.039090287 0.37712023 -0.019688949
000180 17 a3 83 3e 0a 08 9b bd 7c f8 e0 3d 72 26 b8 bd
       0.25710365 -0.07569893 0.10984895 -0.08991708
000190 d2 31 48 be da b1 2d 3e ff 69 16 3e d2 0f 23 3d
       -0.19550255 0.16962376 0.14688872 0.03981001
0001a0 8c cc dc 3d a7 60 43 3e ee cd 1d 3e 40 39 1a be
       0.10781202 0.19079839 0.15410587 -0.15060902
0001b0 0c eb 9d 3d 5a 47 79 be 34 93 54 be 42 35 b8 bd
       0.07710847 -0.24343625 -0.20759279 -0.08994533
0001c0 4b 76 09 be 61 f7 7e bb 57 2a 8d 3d 42 d5 68 3e
       -0.13424031 -0.0038904774 0.06892841 0.22737601
0001d0 31 c4 f3 3d 8e 22 15 3e 58 7c b1 3e fd b1 03 bd
       0.11902655 0.14563963 0.3466518 -0.032152165
0001e0 fe b6 8e 3d b8 18 4d be 8d fb 82 3d 55 95 8e bd
       0.06968497 -0.2002896 0.06395636 -0.069620766
0001f0 99 74 35 bc a3 a9 19 3e 59 97 83 be 55 26 6d bd
       -0.011075162 0.15006118 -0.25701407 -0.057897884
000200 80 08 db be 24 26 91 3e 18 48 17 be de 11 14 3e
       -0.42779922 0.2834941 -0.14773595 0.14459941
000210 b7 e2 a2 bc 0d a9 77 3e 18 5c 48 be 0a 09 31 be
       -0.019883497 0.24185582 -0.19566381 -0.17288604
000220 80 63 00 be df b7 2d 3e b1 3f 68 bc c1 52 13 3e
       -0.12537956 0.16964673 -0.014175341 0.14387037
000230 4f 5c 45 3d 18 72 3e 3c b5 93 9f 3d 47 18 0e bd
       0.048183735 0.011623882 0.07791845 -0.03469112
000240 a4 48 5d 3e ec fb 47 be 89 35 91 3c 5c 56 d4 3c
       0.21609741 -0.19529694 0.017725723 0.025920086
000250 bd 3d 22 3e 60 97 73 be ef 67 c9 3c 1f 5a 92 3c
       0.15843864 -0.23788214 0.024585692 0.017865239
000260 2d 4d 83 3c 80 6d 47 3d 99 73 57 3e e7 e5 d6 3d
       0.016028011 0.04868841 0.21040191 0.10493069
000270 0e 28 d6 bc 99 c7 8a 3e 54 99 14 3e f8 11 7d 3e
       -0.026142146 0.27105406 0.14511615 0.24713886
000280 63 99 41 3e d1 67 aa 3b d9 d0 77 3e 89 af f5 bd
       0.18906169 0.005200364 0.24200763 -0.11996371
000290 0c 9f 12 be 27 4b a0 3e 39 b9 3f 3e e1 76 8b 3e
       -0.14318484 0.31307337 0.18723 0.27239135
0002a0 53 b2 eb bd b0 4b 39 3d 40 21 05 be 7c a4 59 3e
       -0.11508622 0.045238197 -0.13000965 0.21254152
0002b0 8e 58 df 3d ec 6c 27 3e ea 66 32 3d b6 4b 67 3e
       0.10905562 0.16350144 0.043555178 0.22587475
0002c0 49 18 87 bc 58 b0 02 3e 80 25 ae 3e 7b 97 53 3e
       -0.016491072 0.12762582 0.34012985 0.20663254
0002d0 ef 1d 9f bc 3a 7a 4f 3e 99 cc 77 3e 98 5a 83 3b
       -0.019423453 0.2026147 0.24199142 0.0040086024
0002e0 77 b5 f3 3d 6d 86 8d bd f6 a8 d1 bd bf 7f 3f 3d
       0.11899846 -0.06910405 -0.10237305 0.046752688
0002f0 bd 2a 97 bd 57 d8 dd bd 73 f1 bc 3e 34 8e d3 3d
       -0.073811986 -0.10832279 0.3690296 0.103298575
000300 02 0d 22 3d f2 8c 35 be 74 dd 03 3e 69 f9 b2 bc
       0.039563186 -0.17729548 0.12877446 -0.021847444
000310 70 23 49 bd b1 ae 92 3e 1a 0b 69 3e a2 3c 8a 3c
       -0.04910606 0.28648904 0.22758141 0.016874615
000320 f4 a3 a7 bd 12 f2 a4 3d db 16 ca 3d 80 7e 39 be
       -0.081855685 0.08053984 0.098676406 -0.18114662
000330 30 77 94 bd fb 74 c6 3d 05 05 c0 3d 3b 50 9b bd
       -0.07249296 0.09690281 0.093759574 -0.07583662
000340 08 01 c7 3d 95 d5 2c bc 23 0e 8d 3c a9 b5 19 3e
       0.097169936 -0.010548969 0.017218655 0.15010704
000350 b0 95 bd 3e 3d a6 67 bc 77 45 c1 3d 47 ad 05 3e
       0.37028265 -0.014138755 0.094370775 0.13054381
000360 1a 3d 0c 3e 6b 42 23 3d 80 e4 eb 3c ab e5 4f 3e
       0.13695183 0.039858263 0.02879548 0.20302455
000370 fe d7 89 3d 73 3b 55 3e c1 5b c0 3e 71 b8 99 bd
       0.0673065 0.2082346 0.37570003 -0.075058825
000380 a0 b1 0f 3e d2 9d cd 3d 00 44 a3 3d 39 95 85 3c
       0.14032602 0.100398675 0.07971954 0.016306506
000390 6c 1f 14 bc 84 3b 35 3e 30 d3 0d be e4 43 73 be
       -0.009040695 0.17698485 -0.13850093 -0.23756367
0003a0 f0 06 12 3e fe ba fd 3d 0c ca 1b 3e 8a de 84 3c
       0.14260459 0.123891816 0.15213794 0.016219396
0003b0 de eb 2d bd ba 3d 3c be 5f 8a b3 bd 9c fd 14 3d
       -0.04246127 -0.18382922 -0.087666266 0.036374673
0003c0 5c 1a 89 bd b9 99 94 3e 97 39 d8 3d f4 9e c3 3e
       -0.06694481 0.2902353 0.105578594 0.3820721
0003d0 08 0d 6f 3e c8 7a 91 bd f2 34 a7 3d 29 de b2 bd
       0.23344815 -0.07103497 0.081643954 -0.0873378
0003e0 9c ee b9 bc f8 b8 52 bd 38 eb 9f 3c 1d 59 6d 3e
       -0.022696786 -0.05144593 0.01952134 0.23178525
0003f0 bd 17 d4 3d 4d 4f 15 be d6 8b a1 bd 85 e4 cb bd
       0.1035609 -0.14581032 -0.07888 -0.09955696

onnx::LSTM_597 f4 [2, 128, 64]
000000 69 b1 d0 be 89 cc e7 bd 26 5b c1 3e 9b 85 89 3d
       -0.40760353 -0.11318309 0.37764853 0.06714936
000010 de 1f 91 3c ea 27 b8 3e 00 c5 cf 3e c2 da 62 3e
       0.01771539 0.35967952 0.40579987 0.22153762
000020 05 fa e3 bd 44 37 88 3e 2d b0 fb 3e 5b bd ae 3c
       -0.11131672 0.26604664 0.4915785 0.021330526
000030 17 41 26 3e f5 2a 8b 3e 07 eb 55 3e 8f bb ab be
       0.16235767 0.2718121 0.20890437 -0.33541533
000040 c9 6d 13 be 5d 7d 3c 3d 1d cd bc 3d be 6a 1d 3e
       -0.14397348 0.046017993 0.0921881 0.1537275
000050 f3 a7 d8 bc a1 6c ce 3b 3b 9d 55 be 99 91 3b be
       -0.026447272 0.0062995707 -0.2086076 -0.1831726
000060 0d 4c 32 be 91 fb 4d 3e 16 a3 ce 3e 26 c9 c5 be
       -0.17411824 0.20115496 0.403588 -0.38630027
000070 e8 aa ea bb 41 d1 48 3e 77 7a 14 be df e8 ce 3d
       -0.007161487 0.19611074 -0.14499842 0.101030104
000080 6f 7b e3 3e 67 6d c6 be b7 ba 1f 3d 74 84 30 bd
       0.4443011 -0.38755342 0.038996425 -0.043095067
000090 26 72 a5 be 9c 9f 8b be 4d c2 8c 3d 73 4b e7 bd
       -0.3231365 -0.2727021 0.068729974 -0.11293688
0000a0 b7 80 f9 3b 52 d4 01 be 03 ae 11 3c 24 15 bc 3d
       0.007614221 -0.1267865 0.008891585 0.0918372
0000b0 46 1e a7 3e 60 3d 06 be 38 a8 a1 3e d9 69 af bd
       0.32640284 -0.1310935 0.31573653 -0.08565111
0000c0 f3 ed a3 3e 82 73 3e 3e 66 71 21 3e fa ff 88 3d
       0.32017478 0.1859875 0.15765914 0.06689449
0000d0 8b b2 9a be d2 67 2e 3f 16 bc 9a be f4 4b c0 be
       -0.30214342 0.6812717 -0.30221623 -0.37557948
0000e0 4d a2 91 3d 19 ff c8 be 96 c5 a6 bf fb cd de 3d
       0.071110345 -0.39257124 -1.3029048 0.108791314
0000f0 84 33 dc 3d f2 a4 8b be 35 6b aa 3e 80 0d c6 3e
       0.10752013 -0.2727428 0.33284917 0.38682175
000100 69 ce 76 be b5 6a 74 3e 56 e1 7f be ee 79 3b 3e
       -0.24102177 0.2386883 -0.24988303 0.18308231
000110 c8 a4 c1 be 4c 1d c4 be d8 3c 29 3d 0a 3e 7c bc
       -0.3782103 -0.38303602 0.04131779 -0.015395651
000120 a1 fe c7 3d 56 4c 7a bd 29 41 32 be 57 e9 6b be
       0.097653635 -0.061107956 -0.17407669 -0.23038231
000130 20 48 9e 3c e6 6f 87 be 2e ce 10 be 9b 7e ab 3e
       0.019321501 -0.2645256 -0.14141151 0.3349503
000140 34 de 3e 3e 37 dc e1 3c fc 83 7d 3d 43 1b 65 3e
       0.18639451 0.027570827 0.06189345 0.22373681
000150 52 65 97 3d 9c b6 24 3e 68 a0 44 3e a0 0f 18 3e
       0.07392372 0.16085285 0.19201815 0.1484971
000160 b7 b2 d1 3e 99 f8 9e be 23 d3 82 be d0 d3 90 3e
       0.4095666 -0.3104904 -0.2555171 0.282866
000170 4c c1 2d be c4 71 56 3c 2d 7b 0e 3e d6 53 7c bd
       -0.16968268 0.013088647 0.13914175 -0.06160339
000180 cf 3d 59 bd 19 22 2e be 11 2a f6 bd 4b 81 1b 3e
       -0.05303746 -0.17005195 -0.12019742 0.1518604
000190 e5 18 99 3e ad 2a 85 bd 7f 66 bd 3d de 03 2e 3e
       0.29901806 -0.065022804 0.09248065 0.16993663
0001a0 64 2e 97 3e 28 01 5c bd 8f 84 88 be 13 c8 e1 bd
       0.2952758 -0.05371204 -0.26663634 -0.11024489
0001b0 fd db 9c be 8d 2a 5a 3d bd 76 a5 3d 5d e8 20 3e
       -0.30636588 0.053263236 0.08079288 0.1571364
0001c0 a4 93 bf bd 42 54 58 be 95 d8 62 be 23 6b 85 be
       -0.09354332 -0.21125892 -0.22152932 -0.260583
0001d0 86 3d bb 3e c7 12 88 3e 48 ce d8 3d a2 ba 83 3e
       0.36570376 0.26576826 0.1058622 0.25728327
0001e0 53 e0 69 be 06 46 e1 bc 2e 97 93 be fa f4 5d be
       -0.22839479 -0.02749921 -0.28826278 -0.21675482
0001f0 d6 48 8f bd 43 d4 df 3e ec 9d 17 be ae 31 9c bd
       -0.06996314 0.4371663 -0.14806336 -0.07626663
000200 46 a7 a3 bb 96 00 a5 bd 38 06 b5 3d a0 2c c2 3d
       -0.004994306 -0.080567524 0.08839077 0.09481168
000210 aa ef ad bd f3 3e 4e bd a2 f3 ff 3d e3 26 5c bd
       -0.08492978 -0.050353 0.12497641 -0.053748023
000220 3b 38 c3 3c d6 4a b3 bb a8 9b 81 3d c6 a8 6d 3d
       0.023830524 -0.0054715676 0.06328517 0.058022283
000230 03 4b e1 bd 47 63 1e bd ac 54 04 3e d3 6c 1b 3c
       -0.110006355 -0.038668897 0.12922925 0.009486395
000240 80 d8 d8 bd 7e 99 e2 3d cc f1 42 3e 34 4c de bb
       -0.10588169 0.110644326 0.1903755 -0.0067839865
000250 30 20 a7 ba 7f 3f b5 3d 8b 88 f5 bd bf c2 4c be
       -0.0012750681 0.088500015 -0.11988934 -0.19996165
000260 f4 21 dd 3b 91 8d 00 3d 87 f1 db bd 83 87 12 3e
       0.0067484323 0.03138501 -0.10739427 0.14309506
000270 50 8c fd 3d 1b 12 a2 bd a7 bb 01 3e b7 a0 e3 3d
       0.12380278 -0.079136096 0.1266924 0.11114638
000280 f9 f6 67 3d f5 ab 20 3f e8 db ef 3d 4f 24 cb 3d
       0.056632016 0.62762386 0.11711866 0.09919035
000290 88 a8 d4 bd 43 ab 8e be e6 3f 3b bd ea 01 91 bd
       -0.10383707 -0.27865037 -0.045715235 -0.07080443
0002a0 2a e1 be bd 88 2c 12 be c1 0f 9e be cc 14 5d bd
       -0.093202904 -0.142748 -0.30871394 -0.05397491
0002b0 1e e0 a5 bd 17 4f 13 be 1a cf 14 3e be 32 22 be
       -0.080993876 -0.14385639 0.14532128 -0.15839669
0002c0 30 84 7a bd f3 d5 37 bd 2a 36 02 3e ce 88 0f 3d
       -0.06116122 -0.044881772 0.12715974 0.035042576
0002d0 4e f5 eb 3d 71 fd c7 be ee bb a1 be 4d db 69 bd
       0.115213975 -0.39060548 -0.3158869 -0.057093907
0002e0 c6 43 a4 3c 1f 01 a7 bd 63 0d c1 3e df 85 6e bb
       0.020051848 -0.08154511 0.37705526 -0.0036395711
0002f0 f1 2b 66 3c d3 68 01 be fa 8b 9c bc 0b 2b 43 bc
       0.014048562 -0.12637644 -0.019109715 -0.011912118
000300 79 2c 63 bd 0a 45 e0 3e 87 f6 f3 bd 65 80 c4 3e
       -0.055462334 0.43802673 -0.11912256 0.38379207
000310 ce e4 e7 bd 0f 03 02 3e c1 09 21 be b3 e3 37 be
       -0.11322938 0.1269648 -0.15726377 -0.17957954
000320 e6 cf 37 3e 2f 58 ca be cc 37 3a be 6d d8 86 be
       0.179504 -0.39520404 -0.18185347 -0.26336995
000330 87 eb b5 3d 70 c7 00 be c2 74 c4 3d 48 91 95 3e
       0.08882814 -0.1257608 0.09592582 0.29212403
000340 2a 13 f5 3c 68 1e a7 3e e0 e8 d9 bd b1 c8 55 be
       0.029916365 0.32640386 -0.106401205 -0.20877339
000350 61 97 7d bc fe 3a 76 3c ba bb 8d 3e 44 0e ee bd
       -0.015477986 0.015028713 0.27682287 -0.11623815
000360 db e3 a7 3e 7a c6 37 be f1 8d 02 be f4 f0 f4 bd
       0.32791027 -0.17946807 -0.12749459 -0.11960021
000370 f7 0c ab 3d 7b 90 f8 be 10 35 68 3e 51 35 43 bd
       0.08352082 -0.4854773 0.22676492 -0.04765827
000380 8b d5 c0 be 0b 31 58 be fb f6 3b bd b7 c8 2e be
       -0.3766292 -0.21112458 -0.045889836 -0.17068754
000390 c3 fd 7f 3e 12 c6 80 3e 99 8d aa 3c 74 dc 8e 3e
       0.24999146 0.25151116 0.020819472 0.27902567
0003a0 9c 64 90 3e a6 92 c3 bd ee 0e 92 bc d1 8c 05 3e
       0.2820176 -0.09549455 -0.017829385 0.13041998
0003b0 f1 49 2b be d7 c7 13 3e aa f2 fb bc ce 6d f5 3d
       -0.16727425 0.14431702 -0.03075536 0.11983834
0003c0 91 73 46 be 25 4e 70 be d2 d2 91 be 3a 0d 09 3d
       -0.19380023 -0.2346731 -0.28481156 0.03345988
0003d0 5a 37 9e 3e d0 e6 24 3e 4f 8b 61 3e 8f 47 81 3e
       0.30901605 0.16103673 0.22025798 0.25249907
0003e0 0a e1 7e be e3 9e 59 3d 3e cb c2 3d 72 46 50 be
       -0.24890533 0.05313004 0.095114216 -0.20339373
0003f0 7c 53 13 3e 2f e8 ba 3e 1a 38 2e 3d b0 fc 80 be
       0.14387316 0.36505267 0.04253397 -0.25192785

onnx::LSTM_598 f4 [2, 128, 32]
000000 60 b5 68 3f 86 a6 19 bf f2 74 7b 3d 35 0d 58 bf
       0.90901756 -0.6001972 0.061390825 -0.8439515
000010 96 db 04 be 12 d9 1a be 64 ec e8 be fb 39 0b 3d
       -0.1297439 -0.15121868 -0.45492852 0.03399084
000020 ee a5 b0 bd bb 73 81 bc 57 09 cd bd 21 66 2d 3e
       -0.086253986 -0.015802255 -0.10011547 0.1693349
000030 f9 4d 73 be a9 a3 9c 3e 66 cc 1a 3e 6e eb 28 bd
       -0.23760213 0.30593613 0.15117034 -0.04124015
000040 8d 1d ea 3e 71 36 55 bd 48 94 00 3e 9c 4f a2 be
       0.4572567 -0.052053872 0.12556565 -0.31701362
000050 c8 57 f5 3d 7f 93 b9 3e 61 e7 19 3f 18 f0 66 bc
       0.119796336 0.36245343 0.6011868 -0.014095329
000060 89 ad 87 3e ee 57 78 3e 88 24 d4 be 8d a3 d4 3c
       0.26499584 0.24252293 -0.4143412 0.025956893
000070 c2 ee e4 be f4 db 77 be c7 62 92 3e aa 4c 72 bb
       -0.44713408 -0.24204999 0.28590986 -0.0036971965
000080 ad d2 8f be 59 b2 66 bd b0 0c 80 3e 8f 31 4c 3c
       -0.2809042 -0.05632243 0.2500968 0.012462988
000090 9f e0 c4 bd ff 9e 6a 3d fb 2f d2 3d b1 ec 4e be
       -0.096131556 0.057280537 0.10263058 -0.20207478
0000a0 76 19 98 be 25 b2 4a 3e 18 f9 81 3e bd 2d 84 bd
       -0.29706925 0.19794519 0.25385356 -0.064540364
0000b0 16 82 be 3d 8b 1c 1f be 86 db fe bd f4 9a 07 be
       0.09302156 -0.15538232 -0.124442145 -0.13242704
0000c0 77 e9 d3 be 60 0c 55 3e 31 8a ce 3e a3 23 9e 3b
       -0.41389057 0.20805502 0.40339807 0.0048260256
0000d0 db 1a 9b 3d 09 6b da bd 05 6e 9d 3e cd b6 8a 3d
       0.07573482 -0.106649466 0.30748 0.06773148
0000e0 b8 42 10 be e0 67 d7 3d bd e1 5f 3e 55 3c ce bd
       -0.14087951 0.105178595 0.21863456 -0.10070101
0000f0 40 37 15 3e 7a 43 d7 bc 05 7e 07 be 6d 9e ab be
       0.14571857 -0.026277293 -0.13231666 -0.33519307
000100 67 ee 10 bd 9e 70 5c be 91 1f f2 3d ea a6 64 3e
       -0.03538361 -0.21527335 0.11822427 0.22329298
000110 77 b9 f0 3d 4c c5 d0 3d 88 a3 8a be 30 01 d3 3d
       0.117541246 0.101938814 -0.2707789 0.10302961
000120 5e 81 be 3e 2f f8 8d 3e 4b c0 02 3e 25 f2 c7 3e
       0.37208074 0.27728412 0.12768666 0.3905193
000130 be 93 64 bf 5c 97 c9 3e c9 96 74 be a1 9e ce bd
       -0.89287937 0.3937329 -0.23885645 -0.1008885
000140 93 2b 00 3e 3e 40 20 3f 59 eb ce 3b 39 c3 cb 3e
       0.12516622 0.62598026 0.0063146767 0.3979738
000150 7c 79 64 be 58 db ab bd e1 8e 65 3f ab 0a 3d 3e
       -0.22311968 -0.08391446 0.8967114 0.18461101
000160 f8 b3 a3 be 65 0d d5 be a8 82 47 be 26 c4 5e bd
       -0.31973243 -0.41611782 -0.19483435 -0.05438628
000170 27 78 c8 be 0b 7c e9 3d 5f 2d 68 bc 05 c7 f5 3d
       -0.3915417 0.114006124 -0.014170974 0.120008506
000180 a4 68 f4 bd 77 f9 26 3e f9 10 d6 3a 76 ba a5 3d
       -0.11934021 0.16306101 0.0016331963 0.08092205
000190 c8 37 71 3e 0b 23 73 be 0f 1f 54 3e 78 21 12 be
       0.23556435 -0.23743837 0.20714973 -0.1427058
0001a0 37 94 1a be 7b bd 69 be 12 52 8e 3e b7 37 02 bf
       -0.15095602 -0.22826187 0.2779699 -0.50866264
0001b0 93 1f 9b 3e 28 03 b5 be 7d 4e a9 3c 91 b1 08 be
       0.30297527 -0.3535397 0.020667309 -0.13348986
0001c0 73 42 cd be e4 3f 74 be 52 5f 08 3d 10 f3 c6 3d
       -0.4008976 -0.23852497 0.03329403 0.09714329
0001d0 49 c1 34 3e 75 a3 6a be 70 1b 59 be dc ed 94 3e
       0.17651857 -0.22913916 -0.21201873 0.29087722
0001e0 7f af b9 be 8d b7 05 3f cd 26 d1 3d 46 34 9c be
       -0.36266705 0.522332 0.10212479 -0.3050863
0001f0 e7 5e c7 3e 45 70 02 be 65 23 bd bd cc 9f 52 bd
       0.38939592 -0.1273814 -0.092352666 -0.051421925
000200 70 d8 0f 3f e9 3a 7d be 49 04 dc 3e d9 a9 48 be
       0.5618963 -0.24729504 0.4297202 -0.19596042
000210 29 e4 87 3d 64 ee b5 3e 76 47 8b be 54 9f db be
       0.06635315 0.3553344 -0.27202958 -0.42894995
000220 58 85 07 be df e8 a4 3d b8 ea fb b9 52 ff 04 3e
       -0.1323446 0.08052229 -0.0004804933 0.12988022
000230 fc b1 cf 3d 0e 19 9f be 33 0a 32 3e 51 21 1e be
       0.1014137 -0.31073803 0.17386703 -0.15442397
000240 a4 1f 56 be 11 91 4f bd bf 28 87 3e 13 05 0f 3e
       -0.20910507 -0.050675455 0.26398274 0.1396678
000250 50 5f 66 3e 6e 7e 88 3e 0c 66 69 3e fe 8a a0 3e
       0.22497296 0.26658958 0.22792834 0.31356043
000260 3d 25 5c 3d ed 8e 7e bd 64 ba 35 3d 3a ff 47 3e
       0.05374645 -0.062148023 0.04436721 0.19530955
000270 ef 75 57 3e 91 5b 13 be 53 63 80 bc 85 a8 de be
       0.21041082 -0.14390399 -0.015672361 -0.43487945
000280 2b 19 8c bd 38 2e 84 bb e5 e5 87 be 87 a2 a2 be
       -0.06840738 -0.00403383 -0.26542583 -0.31764624
000290 3b 20 85 bd 2e 04 ea 3b b8 28 ce 3e c5 4b 4d 3e
       -0.06500288 0.0071416115 0.4026544 0.20048435
0002a0 6b 21 7c be 5a 5e cf 3e 58 88 53 be de bd e6 3e
       -0.24622123 0.40501672 -0.2065748 0.45066732
0002b0 c6 cd d3 be 39 c6 1b 3f 49 56 11 3f 7e 21 99 3e
       -0.4136793 0.6084934 0.56772286 0.29908365
0002c0 8e ae 8a 3d 7c a5 71 bd 56 4b 05 be b2 99 e5 3c
       0.06771575 -0.05899571 -0.1301702 0.02802739
0002d0 ad 7e a0 be 4d 2d bd be ba 9c 94 3e 7e 38 16 bd
       -0.31346646 -0.36948624 0.29025823 -0.03667497
0002e0 89 2e e3 3e 35 95 2d be a1 e2 98 be 20 28 a6 bd
       0.4437144 -0.16951449 -0.29860404 -0.08113122
0002f0 39 cf ba be 2e 8e c8 3d 2a 54 2d 3e 8c 2f c2 3e
       -0.36486223 0.097927436 0.16926637 0.379269
000300 db e5 c5 be b8 de a0 bd b4 97 87 bd 8c 0b ef be
       -0.38651928 -0.0785498 -0.06620732 -0.46688497
000310 2f 26 4f be df ee de 3e 7f 03 44 be c7 be 8c be
       -0.2022941 0.4354162 -0.19141959 -0.27489302
000320 94 e2 e2 be 0e 26 51 bd dd 7a 97 bd 5b 9c f9 3d
       -0.4431349 -0.051061682 -0.07396481 0.121880256
000330 d6 e4 ab 3d 39 87 77 3e af bc 22 3f 85 7c 57 3e
       0.08393256 0.24172677 0.6356916 0.21043594
000340 fa 48 8a 3d cb 90 d0 bc f8 60 71 be 5a a4 90 be
       0.067522004 -0.025459668 -0.23572147 -0.2825039
000350 7c 03 92 3c ae 71 9c 3e 87 2c 2a be ce 3d 6e 3e
       0.017823927 0.3055548 -0.16618548 0.23265764
000360 fd 99 4f 3d 06 6f 43 3e 1e fe cf bd 41 f7 95 3e
       0.050683964 0.19085321 -0.10155891 0.29290202
000370 e9 15 f9 3d fd 60 aa be 9d 61 57 3e 10 4f 86 3d
       0.12162382 -0.3327712 0.2103333 0.06558049
000380 cf 92 46 be 9d 28 26 bf 09 d4 15 3e 59 e6 07 bd
       -0.1939194 -0.6490572 0.14631666 -0.03317866
000390 f8 82 58 be 93 6f a8 be f4 14 b0 bd f8 7a 71 3e
       -0.2114371 -0.32897624 -0.085977465 0.23582065
0003a0 83 33 88 be e8 47 38 3e 2a 63 06 3e f2 b5 c8 3e
       -0.266018 0.1799618 0.13123766 0.39201313
0003b0 ca 03 ee bd 64 70 5a 3e 1f 01 3c be 0d 0c 40 be
       -0.116218165 0.21331936 -0.18359803 -0.18754597
0003c0 42 45 95 3e 8d 0e 05 3f d9 07 3d bd 80 7f d9 bd
       0.29154402 0.5197533 -0.046150062 -0.10620022
0003d0 66 a7 bd bd 21 15 ff bd 80 c2 8a 3d 32 cb 27 be
       -0.09260444 -0.12455202 0.06775379 -0.16386107
0003e0 25 67 04 3e 90 67 44 3e aa 8f 9d 3d 4e 75 94 be
       0.12929972 0.19180131 0.07693417 -0.28995746
0003f0 a7 ed 44 be bb a2 40 3e 52 f1 65 bd 81 08 8a 3e
       -0.19231282 0.18812077 -0.056138344 0.26959613
